checkpoints/policy_humanoid_legs.onnx (onnx, 252181 bytes, 8 tensors)

actor.0.weight f4 [256, 45]
0.58161676 0.9132626 -0.073470935 0.5637026 0.06523272 0.013228587 0.11637802 2.4261527
0.31249982 -1.8334228 -0.19711246 1.0034288 -0.8557593 0.8825084 -0.54170483 1.8852638
0.76957375 0.26973802 -0.85681 0.3409414 -0.62688285 0.039771877 0.10870093 0.059816655
0.0127162505 0.060443938 -0.009673533 -0.17204525 -0.14000808 -0.033012047 -0.012744007 0.00017885366
-0.09922301 0.045034803 0.048248097 0.4239491 -0.010539893 -0.024322012 -0.059219517 -0.09377774
0.27878383 -0.024094226 0.113530934 0.054717787 -0.30156136 -0.0036286123 -0.018522749 -0.4191772
0.44383675 -0.17676017 0.32271606 -2.9178796 -4.8269205 0.5552389 -0.43492228 3.1836026
0.37836823 -0.4683796 0.86392206 1.3930491 1.7443541 1.0438961 -0.3646413 0.26022846
0.67693746 -2.0422683 -0.009868084 0.0434778 -0.04878504 0.0068977834 0.09632706 0.011400044
-0.111032374 -0.04678947 -0.071798325 0.042305555 -0.06613821 0.01220164 -0.083673246 -0.08723327
0.15112124 -0.021152556 0.010657896 -0.0027417073 0.0068206806 -0.29959756 0.015968982 -0.06327618
-0.04658314 0.2130878 -0.26706105 0.8012116 0.38458323 0.090701364 -0.56839824 -0.22235207
-2.644871 1.1101489 0.32400712 -2.0939848 -1.9387463 2.0668325 -0.8057137 1.0026121
2.2867966 -1.8015063 -0.49222407 -1.2423626 -1.1562757 0.30457902 -0.07076135 -0.04301517
-0.11836297 -0.07339935 0.06340502 0.05372228 0.04563959 -0.013995006 -0.016102146 0.03636845
0.039247554 0.019908575 0.051246647 0.19939071 0.34799922 -0.020149956 0.018308263 0.013889665
-0.052478585 0.18962851 0.025331354 -0.010476958 0.17340669 -0.0034352597 -0.0429311 -0.8366979
-0.21506165 1.4802845 -0.25009272 0.025758205 -0.09021151 -2.1812181 3.4377477 0.37633535
0.9569245 0.20319599 0.34997568 -0.0421398 1.6932393 0.28448433 -3.0136328 5.185238
-0.81370944 0.23662378 0.49540412 -1.0929303 8.298809e-05 0.07437715 0.051107507 -0.02713599
-0.07294969 0.037469786 -0.085523896 0.03865312 -0.038480904 -0.06753791 0.030179707 0.059757397
0.11137671 -0.10417882 0.06688889 0.056372024 0.091738105 -0.014052089 -0.17097637 0.046110407
0.03353419 0.12624468 -0.14255834 0.060524333 0.27460727 -0.68321985 0.3476405 -0.28330708
0.3477369 0.12199629 -0.9334916 1.6986309 1.8560252 -2.0402598 1.7809305 -1.1766003
-0.25914672 1.1327326 0.0938838 -2.2818983 0.5458591 -0.060519096 -0.49126557 1.1578815
-0.8640458 0.014764397 0.27444288 0.02869291 -0.16517329 -0.21828176 -0.048892178 -0.14134477
-0.068922944 -0.13750948 0.10528902 0.03434963 0.05954047 -0.29821074 -0.053384352 0.17974511
0.018027915 0.1534823 -0.0690056 0.16557592 0.025233982 0.010265637 -0.1410592 -0.20590626
-0.14339048 -0.12612616 0.53692377 0.17787069 -0.55295366 -0.027724596 -0.099857174 -0.16142754
4.4996724 -0.13767 1.1124614 -0.46586692 -0.06723519 0.029393047 0.12821344 0.17246555
1.04095 0.40268135 -1.345593 0.78149605 -0.16358145 3.8469748 -0.027397811 0.07667849
0.009142465 0.021724306 -0.05807411 0.023631467 -0.062158953 -0.0562739 -0.14751282 0.00084653293
00000000: d6e4 143f 94cb 693f ee77 96bd d04e 103f
00000010: bb98 853d b7bc 583c 9957 ee3d 1646 1b40
00000020: faff 9f3e 99ad eabf d9d7 49be 5b70 803f
00000030: 0b13 5bbf 12ec 613f 2bad 0abf 5350 f13f
00000040: c902 453f 1a1b 8a3e e657 5bbf df8f ae3e
00000050: 657b 20bf d6e7 223d 989e de3d 4f02 753d
00000060: d257 503c 1094 773d bd7d 1ebc a12c 30be
00000070: 475e 0fbe a437 07bd 3dcc 50bc aa8a 3b39
00000080: 6f35 cbbd 6a76 383d cc9f 453d db0f d93e
00000090: 84af 2cbc f53e c7bc 2a90 72bd 8b0e c0bd
000000a0: c1bc 8e3e 4161 c5bc e882 e83d c21f 603d
000000b0: 4066 9abe 03ce 6dbb 05bd 97bc 659e d6be
000000c0: 923e e33e 9e00 35be 0a3b a53e 8abe 3ac0
000000d0: 2276 9ac0 2324 0e3f 22ae debe 25c0 4b40
000000e0: 7bb9 c13e 73cf efbe ff29 5d3f 6f4f b23f
000000f0: ff46 df3f 639e 853f 44b2 babe aa3c 853e
00000100: c64b 2d3f 86b4 02c0 bfad 21bc c715 323d
00000110: d2d2 47bd cd06 e23b 1f47 c53d 40c7 3a3c
00000120: f164 e3bd 51a6 3fbd 000b 93bd 9748 2d3d
00000130: 7873 87bd 63e9 473c e15c abbd 5ba7 b2bd
00000140: 87bf 1a3e 2048 adbc 759e 2e3c 37ae 33bb
00000150: 0480 df3b da64 99be 62d1 823c f196 81bd
00000160: f6cd 3ebd b033 5a3e 3abc 88be 341c 4d3f
00000170: 18e8 c43e a3c1 b93d 8c82 11bf 43b0 63be
00000180: 9145 29c0 5c19 8e3f 43e4 a53e d903 06c0
00000190: d728 f8bf fc46 0440 4143 4ebf 9855 803f
000001a0: e05a 1240 c297 e6bf cb04 fcbe bd05 9fbf
000001b0: d800 94bf c8f1 9b3e 54eb 90bd ad30 30bd
000001c0: 4968 f2bd 6652 96bd 7eda 813d e50b 5c3d
000001d0: 94f0 3a3d 4f4b 65bc a6e8 83bc 15f7 143d
000001e0: 0bc2 203d 4f17 a33c 01e8 513d 142d 4c3e
000001f0: f42c b23e 8511 a5bc 36fb 953c 7a91 633c
00000200: c9f3 56bd fa2d 423e b383 cf3c 8ca7 2bbc
00000210: 8691 313e 1822 61bb 85d8 2fbd d531 56bf
00000220: 1f39 5cbe f679 bd3f 270c 80be df02 d33c
00000230: d0c0 b8bd 1499 0bc0 0f04 5c40 07af c03e
00000240: 01f9 743f 9c12 503e 0330 b33e c89a 2cbd
00000250: 11bc d83f eea7 913e 5cdf 40c0 78ed a540
00000260: 434f 50bf 814d 723e 9ca5 fd3e 24e5 8bbf
00000270: e409 ae38 0c53 983d 1b56 513d 4c4c debc
00000280: a666 95bd eb79 193d 2727 afbd bc52 1e3d
00000290: 279e 1dbd 5151 8abd 6f3b f73c 2cc4 743d
000002a0: 7919 e43d b55b d5bd 0bfd 883d 5ae6 663d
000002b0: 30e1 bb3d bc3a 66bc 6e14 2fbe 44de 3c3d
000002c0: 265b 093d 4946 013e d0fa 11be 5de8 773d
000002d0: 5399 8c3e 7fe7 2ebf f0fd b13e a00d 91be
000002e0: 920a b23e 31d9 f93d 4ef9 6ebf bd6c d93f
000002f0: 3c92 ed3f 9e93 02c0 88f5 e33f d79a 96bf
00000300: e1ae 84be 62fd 903f 2646 c03d 9f0a 12c0
00000310: 6cbd 0b3f dfe2 77bd 2987 fbbe 7635 943f
00000320: 1b32 5dbf 5fe6 713c c783 8c3e 650d eb3c
00000330: 3023 29be 4185 5fbe 2a43 48bd afbc 10be
00000340: 7927 8dbd 49cf 0cbe c5a1 d73d 33b2 0c3d
00000350: b5e0 733d 14af 98be 8da9 5abd 1a0f 383e
00000360: 47af 933c 772a 1d3e cf52 8dbd bc8c 293e
00000370: 7fb7 ce3c 3431 283c d371 10be 17d9 52be
00000380: f4d4 12be 3727 01be d673 093f bc23 363e
00000390: 5f8e 0dbf b11e e3bc eb81 ccbd 434d 25be
000003a0: 51fd 8f40 5df9 0cbe 2365 8e3f 1c86 eebe
000003b0: 9ab2 89bd b0c9 f03c 624a 033e cf9a 303e
000003c0: d93d 853f 402c ce3e 643c acbf 2010 483f
000003d0: e581 27be d634 7640 6071 e0bc 9d09 9d3d
000003e0: 47ca 153c 2cf7 b13c 1edf 6dbd c796 c13c
000003f0: 639a 7ebd 767f 66bd 9a0d 17be dde9 5d3a

actor.0.bias f4 [256]
-0.32529932 -0.57120556 -0.31472704 -0.13872825 -1.895083 -0.1081416 -0.30931404 -0.62378234
-0.18047918 -0.36131173 -0.128797 -0.4554411 -0.929894 -0.5490203 0.51717 -0.5156408
-0.40875593 -0.27108288 -0.16244255 -0.39158258 -0.8215257 -0.58865947 -0.3660956 0.070345245
-0.46691057 -0.49384743 -0.24952789 -0.55516464 -0.018358683 -0.24647216 0.078930445 -0.4446375
-0.24368034 -0.34200665 0.37956896 -0.38269234 -0.33384955 -0.39282343 0.17062113 -0.7401922
-0.17852592 -0.30397847 -0.729626 -0.51597476 -0.26726612 -0.08784166 -0.1481384 -0.59653854
-0.6108255 -0.094956726 -0.6134802 -0.14712742 -0.1013438 -0.1750238 -0.2992929 0.078585
-0.40855303 -0.48605445 -0.69074947 -0.5721769 -0.66722566 -0.67694634 -0.8850676 0.050678752
-0.56788754 -0.38335997 -0.69455725 -0.05243823 -0.15972926 -0.57296354 0.05100342 -0.17477193
-0.5417407 -0.47270578 -1.0449878 -0.5863645 -0.33424222 -0.62689877 0.4497466 -0.08497629
0.008856014 -0.61180216 -0.7433593 -0.4427211 -0.6093086 -0.61739296 0.3897044 -0.36903474
0.15919259 0.08039366 0.0042851763 -0.5892897 -0.20886153 -0.2408862 -0.5909858 -0.13460173
-0.17725825 -0.5569771 0.040100705 -0.30123064 -0.10576704 -1.2682986 -0.061469182 0.4547886
-0.46064743 0.0196348 -0.62845916 -0.08299743 -0.3756865 0.13519794 -0.4332917 -0.8222796
-0.80303395 -0.39367303 -0.8469414 -0.11122687 0.20541392 -0.24875927 -0.48403287 -0.30490118
-0.16047654 -0.7142914 -0.18750843 -0.47124174 -0.47174814 -0.031388864 0.12168134 -0.62961483
-0.7419289 -0.29622656 -0.85976887 -0.20082474 -0.33340868 -0.29709893 -0.3885675 0.08015135
-1.2880019 -0.65613836 -0.6082846 -0.5839734 -0.40066382 -2.0085428 -0.9623507 -0.2828277
-0.30373752 0.28141353 -0.8386246 0.2856277 -0.44111305 -0.4600265 -0.45838523 -0.45701957
-0.51082253 0.09443331 0.36027607 -0.6684046 -0.5455328 0.17513059 -0.66355336 -0.5941611
-1.3645366 -1.4152567 0.3095033 -0.7748902 -0.4506642 -0.385428 -0.41264132 -0.12050401
0.34034738 -0.35346246 -0.68026245 -0.791663 0.4835432 0.41713038 -0.3853343 -0.3354528
-0.41512948 -0.47815958 -0.069689356 -0.84178174 -0.14923482 -1.0405284 0.21011312 -0.45472527
0.32296163 -0.37454382 -0.64069134 -0.74646086 -0.6122828 -0.41132098 -0.23639862 -0.9616873
-0.5806432 -0.50428814 0.42649937 -0.07917762 0.41360104 0.40908456 -0.8612388 -0.2756514
0.32133394 -0.03939251 -0.50250584 -0.5638703 -0.53258705 -0.9679331 -0.62570584 -0.86813885
-0.64562094 -0.18662564 0.13692246 -1.1073196 -1.1322588 -0.45408833 -0.03458668 0.1632971
-0.30986217 -0.6310761 -0.4604812 -0.0010647965 -0.1740988 -0.13283695 -0.22571035 -0.29089814
-0.57701445 -0.39255062 -0.23005886 -0.90436155 0.07576392 -0.32216695 -0.5278237 -0.5754009
-0.27889445 -0.6964886 -0.48683423 -0.4585483 -0.709969 -0.47224176 -0.5087356 -0.6029024
-0.6353893 -0.59685683 -0.00090908457 -0.49392822 -0.16191784 -0.3210903 -0.6970007 -0.53616184
-0.14880967 -0.37546986 -0.11381611 -0.41132408 -0.62259454 -0.46024 -0.61745685 -0.2556168
00000000: a28d a6be 873a 12bf e723 a1be c70e 0ebe
00000010: 1492 f2bf 5879 ddbd 695e 9ebe 33b0 1fbf
00000020: 89cf 38be dafd b8be 5ce3 03be 932f e9be
00000030: 880d 6ebf 988c 0cbf 4165 043f 0901 04bf
00000040: 7548 d1be 60cb 8abe 5757 26be 837d c8be
00000050: 824f 52bf 63b2 16bf e270 bbbe 2b11 903d
00000060: e70e efbe 92d9 fcbe 3d84 7fbe 451f 0ebf
00000070: f364 96bc 3363 7cbe 49a6 a13d 87a7 e3be
00000080: 5787 79be 7f1b afbe dd56 c23e 40f0 c3be
00000090: 54ee aabe 2720 c9be 4eb7 2e3e 3c7d 3dbf
000000a0: 80cf 36be 11a3 9bbe c5c8 3abf ec16 04bf
000000b0: 1bd7 88be 54e6 b3bd 98b1 17be c0b6 18bf
000000c0: 0f5f 1cbf ac78 c2bd 0a0d 1dbf 92a8 16be
000000d0: 578d cfbd 7039 33be eb3c 99be 2cf1 a03d
000000e0: dd2d d1be 21dc f8be f5d4 30bf 2f7a 12bf
000000f0: 4dcf 2abf 5b4c 2dbf ca93 62bf 8694 4f3d
00000100: 1461 11bf c247 c4be 81ce 31bf 78c9 56bd
00000110: 1190 23be bdad 12bf f6e8 503d 6af7 32be
00000120: 85af 0abf 7e06 f2be 29c2 85bf fc1b 16bf
00000130: cc21 abbe 707c 20bf 3045 e63e 0d08 aebd
00000140: d118 113c 119f 1cbf cc4c 3ebf 57ac e2be
00000150: a6fb 1bbf 770d 1ebf 5687 c73e 1ff2 bcbe
00000160: 6203 233e 6ea5 a43d aa6a 8c3b b1db 16bf
00000170: ccdf 55be dfaa 76be d84a 17bf 09d5 09be
00000180: 3083 35be 0d96 0ebf a340 243d e73a 9abe
00000190: 649c d8bd 9c57 a2bf 1cc7 7bbd 0dda e83e
000001a0: fbd9 ebbe 29d9 a03c b3e2 20bf 8efa a9bd
000001b0: fb59 c0be 5471 0a3e 69d8 ddbe ea80 52bf
000001c0: a293 4dbf 838f c9be 27d1 58bf eaca e3bd
000001d0: 0758 523e c0ba 7ebe 28d3 f7be 021c 9cbe
000001e0: f653 24be cddb 36bf 3602 40be 9946 f1be
000001f0: f988 f1be 9c91 00bd 1134 f93d 702e 21bf
00000200: 0def 3dbf 02ab 97be d019 5cbf 00a5 4dbe
00000210: 8bb4 aabe 5a1d 98be 52f2 c6be 6426 a43d
00000220: 3fdd a4bf aff8 27bf 8ab8 1bbf 487f 15bf
00000230: cf23 cdbe f78b 00c0 9e5c 76bf cbce 90be
00000240: 7c83 9bbe 6f15 903e 1ab0 56bf cb3d 923e
00000250: 92d9 e1be 9888 ebbe 78b1 eabe 78fe e9be
00000260: 44c5 02bf 4066 c13d 1b76 b83e 901c 2bbf
00000270: 0aa8 0bbf 6f55 333e a2de 29bf f11a 18bf
00000280: 23a9 aebf 2227 b5bf 3777 9e3e 345f 46bf
00000290: 75bd e6be d256 c5be b945 d3be ceca f6bd
000002a0: 0342 ae3e 08f9 b4be ae25 2ebf 6daa 4abf
000002b0: f992 f73e 1d92 d53e 8a4a c5be 78c0 abbe
000002c0: da8b d4be 55d1 f4be 4bb9 8ebd 027f 57bf
000002d0: 03d1 18be 0930 85bf e527 573e c0d1 e8be
000002e0: 3a5b a53e 35c4 bfbe 5904 24bf 0f18 3fbf
000002f0: 91be 1cbf aa98 d2be 7b12 72be 2431 76bf
00000300: 08a5 14bf 0719 01bf 205e da3e e027 a2bd
00000310: 84c3 d33e 8873 d13e 257a 5cbf 2e22 8dbe
00000320: e285 a43e 0a5a 21bd 39a4 00bf ce59 10bf
00000330: a057 08bf 77ca 77bf 422e 20bf 593e 5ebf
00000340: 6a47 25bf cb1a 3fbe 6735 0c3e a6bc 8dbf
00000350: dbed 90bf 447e e8be c3aa 0dbd 5b37 273e
00000360: 41a6 9ebe 348e 21bf 31c4 ebbe a490 8bba
00000370: f546 32be 6906 08be 9d20 67be 9af0 94be
00000380: 38b7 13bf 65fc c8be 8d94 6bbe 3d84 67bf
00000390: 1d2a 9b3d 11f3 a4be 741f 07bf 794d 13bf
000003a0: 41cb 8ebe 144d 32bf 5642 f9be d8c6 eabe
000003b0: 87c0 35bf acc9 f1be 7f3c 02bf d057 1abf
000003c0: e0a8 22bf 9ccb 18bf a24f 6eba 29e4 fcbe
000003d0: cacd 25be f365 a4be a36e 32bf e741 09bf
000003e0: 9061 18be 963d c0be 6c18 e9bd 1299 d2be
000003f0: 5b62 1fbf 94a4 ebbe a711 1ebf 35e0 82be

actor.2.weight f4 [128, 256]
0.20172319 1.213689 0.5001606 0.40145588 0.5470224 -0.032203585 0.48141387 0.33111688
-0.038570784 0.9530122 -0.12509233 0.3517144 0.20537508 -0.4812459 -1.3212258 -0.4713757
0.67791075 0.74609435 -0.05874366 0.7756534 0.51178783 -0.020192463 0.30482087 -0.39570165
0.24480967 0.9121401 0.03519874 -0.2925233 0.18051586 0.05528602 -1.4449522 0.7335011
-0.38579348 0.55455804 0.25990683 -0.35520187 0.1457355 -0.32811663 -0.7245125 -0.24056336
-0.62053967 1.3403947 1.2233229 -0.054682117 -0.13320269 0.65031487 -0.73801064 0.32603773
0.9900999 0.6382981 1.2258155 -0.3459365 0.88215363 0.15408109 -0.33458787 0.56438625
-0.0017650733 1.1876307 0.42856315 0.4347804 0.06554846 -0.2403101 0.9333002 -0.29690087
0.25682035 -0.21985227 0.47461033 0.70738596 -0.21236604 -0.022934949 -0.71160054 -0.024010392
0.7126021 -0.3212781 0.8526637 -0.36131042 0.06703488 0.13174534 -0.7281842 -0.562656
0.3752574 -0.27561516 0.102621034 0.17759629 -0.15311149 0.05135087 -0.50365853 0.34922016
-0.33902827 0.73494184 0.14390607 0.21493049 0.17687663 0.522651 -0.68794537 -0.9137377
-0.011566369 0.009893048 0.0788963 0.2038287 1.546008 -0.014528984 0.29811922 -1.5630405
0.52058583 -0.3884564 0.6504869 0.031902462 0.2794539 -0.3471926 -0.30178806 -0.17808479
0.73066336 -0.36178944 0.19582641 0.32054433 0.41467962 0.63381267 -0.37025607 0.18809807
0.6319646 0.51187193 -0.67336047 0.016735354 0.05439446 0.6744138 -0.3808498 1.2726068
0.8459183 0.32796335 1.4105697 0.8144952 -0.7300358 0.04734974 0.58478564 0.6223691
0.09715617 0.38640964 0.832268 -0.88715 0.6820117 0.9590151 1.8031489 0.32956684
0.23178212 0.5387568 0.925043 -0.014730533 0.6556087 -0.46990952 -0.3096882 -0.12308672
-0.01510406 -1.3634332 -0.76631564 0.7674334 0.1542502 -0.271683 -0.48966035 0.75647503
0.7195293 0.48002708 0.06813805 0.069667794 -0.025417458 -0.4172884 0.14264846 -0.9023189
-1.4281075 0.042603694 0.3994179 0.1252141 -0.90856284 -0.5672309 0.8117393 0.03111593
0.11888052 0.147549 -0.15376289 0.069723696 -1.0752842 -0.21946128 -0.9516203 -0.007964602
0.18476588 0.34711996 -0.14849588 0.40226057 0.9221304 0.8736347 0.12316803 0.6914631
-0.19320536 0.866797 0.19062257 -0.8316387 0.07453482 -1.0485392 0.7164948 -0.46742508
0.3404553 0.3676679 0.18270488 -0.02730699 0.10056905 -0.2564337 0.7982366 0.55498606
1.3251623 -0.36211342 -0.19109051 0.45621505 1.2478807 0.607552 -0.1684079 -0.82494193
-0.13123068 -0.09581135 -0.054539442 -0.77505684 0.53703505 0.8853275 0.68169576 0.8912873
-0.06847483 -0.10854396 0.43256152 -0.08311181 0.28104597 -0.11879807 0.4589933 -0.9224428
1.2685394 -0.29200462 0.4668363 0.61067516 1.5189798 -0.08187881 -0.6642223 -0.63137233
0.008425871 0.76363146 0.093634255 0.41103166 -0.83912617 -0.4098788 0.6043298 0.71349674
-0.61757654 0.49356285 -0.058364272 -0.098306194 0.96324563 0.24154471 -0.3972446 -0.22963463
00000000: 8690 4e3e 295a 9b3f 860a 003f a08b cd3e
00000010: a909 0c3f e8e7 03bd e17b f63e 2788 a93e
00000020: 66fc 1dbd 9cf8 733f 3418 00be e913 b43e
00000030: d84d 523e dd65 f6be ed1d a9bf 2858 f1be
00000040: 8f8b 2d3f 0a00 3f3f 319d 70bd 3991 463f
00000050: 8704 033f aa6a a5bc 7b11 9c3e 6899 cabe
00000060: 63af 7a3e 0382 693f 8e2c 103d 9dc5 95be
00000070: 26d9 383e 9873 623d 32f4 b8bf bac6 3b3f
00000080: b986 c5be 84f7 0d3f 8212 853e 05dd b5be
00000090: b03b 153e e7fe a7be a779 39bf 3e56 76be
000000a0: b0db 1ebf 0e92 ab3f d895 9c3f 5bfa 5fbd
000000b0: 4966 08be 097b 263f 44ee 3cbf 6bee a63e
000000c0: 3077 7d3f 8167 233f 86e7 9c3f 971e b1be
000000d0: d2d4 613f 6fc7 1d3e 1a4f abbe 9e7b 103f
000000e0: 085a e7ba 4804 983f a16c db3e 899b de3e
000000f0: 453e 863d da13 76be c3ec 6e3f 6403 98be
00000100: f57d 833e f420 61be 2000 f33e 3f17 353f
00000110: 7c76 59be 13e2 bbbc 742b 36bf 71b1 c4bc
00000120: 176d 363f 907e a4be 2b48 5a3f aefd b8be
00000130: 9549 893d 40e8 063e 486a 3abf 390a 10bf
00000140: bd21 c03e 6e1d 8dbe fa2a d23d cddb 353e
00000150: 42c9 1cbe 4a55 523d c4ef 00bf fccc b23e
00000160: 1d95 adbe 2625 3c3f 1d5c 133e bd16 5c3e
00000170: 261f 353e 75cc 053f 301d 30bf b7ea 69bf
00000180: de80 3dbc 7316 223c 6294 a13d 79b8 503e
00000190: 97e3 c53f fa0a 6ebc 15a3 983e b611 c8bf
000001a0: 1d45 053f c2e3 c6be 4f86 263f 28ac 023d
000001b0: 9514 8f3e 3ac3 b1be f783 9abe dc5b 36be
000001c0: c10c 3b3f 773c b9be b886 483e 631e a43e
000001d0: e350 d43e 8c41 223f 3492 bdbe c89c 403e
000001e0: 6fc8 213f 0a0a 033f 5a61 2cbf 9518 893c
000001f0: bacc 5e3d 62a6 2c3f bffe c2be c8e4 a23f
00000200: 1a8e 583f d0ea a73e 8c8d b43f c282 503f
00000210: a0e3 3abf cdf1 413d 83b4 153f 9553 1f3f
00000220: d0f9 c63d 7cd7 c53e 840f 553f 431c 63bf
00000230: 5298 2e3f 0382 753f 95cd e63f fcbc a83e
00000240: 4b58 6d3e f7eb 093f 9ecf 6c3f 5558 71bc
00000250: f9d5 273f fb97 f0be 748f 9ebe e414 fcbd
00000260: 0577 77bc fb84 aebf 432d 44bf 8476 443f
00000270: c4f3 1d3e 091a 8bbe c3b4 fabe 59a8 413f
00000280: 1233 383f 1cc6 f53e f68b 8b3d fdad 8e3d
00000290: 4638 d0bc d3a6 d5be 7012 123e 5ffe 66bf
000002a0: 3acc b6bf 3681 2e3d 8180 cc3e 2038 003e
000002b0: 9397 68bf 0b36 11bf 26ce 4f3f d6e6 fe3c
000002c0: a177 f33d 1617 173e 0574 1dbe 4ccb 8e3d
000002d0: eaa2 89bf 75ba 60be 639d 73bf f67d 02bc
000002e0: 4433 3d3e b5b9 b13e 4e0f 18be 19f5 cd3e
000002f0: bd10 6c3f 86a6 5f3f 853f fc3d ba03 313f
00000300: a0d7 45be 68e6 5d3f 9032 433e 46e6 54bf
00000310: b6a5 983d 8836 86bf 346c 373f 5752 efbe
00000320: 2850 ae3e f83e bc3e fd16 3b3e e9b2 dfbc
00000330: 25f7 cd3d 474b 83be 3c59 4c3f 9113 0e3f
00000340: eb9e a93f ee66 b9be 3bad 43be 0595 e93e
00000350: 8eba 9f3f 8788 1b3f 1f73 2cbe 652f 53bf
00000360: 5661 06be be38 c4bd c064 5fbd 206a 46bf
00000370: 217b 093f d3a4 623f 9d83 2e3f 682b 643f
00000380: 883c 8cbd 4c4c debd b478 dd3e 8636 aabd
00000390: 42e5 8f3e 674c f3bd 2b01 eb3e 3625 6cbf
000003a0: 805f a23f a181 95be 2b05 ef3e 3555 1c3f
000003b0: ee6d c23f 14b0 a7bd 790a 2abf 9ea1 21bf
000003c0: aa0c 0a3c 5a7d 433f 51c3 bf3d be72 d23e
000003d0: f9d0 56bf a2db d1be 5cb5 1a3f b9a7 363f
000003e0: 7f19 1ebf 45b4 fc3e 600f 6fbd c254 c9bd
000003f0: 4497 763f 7f57 773e a563 cbbe 5725 6bbe

actor.2.bias f4 [128]
-0.88501173 -0.2142594 -0.35522494 -0.16413698 -0.44992152 -0.32213697 -0.07329111 -0.2985055
0.0928023 -0.2574858 -0.2683678 -0.5371802 -0.16285701 -0.3771055 -0.5715589 -0.22550353
-0.08447605 -0.107907504 -0.39807975 -0.25278515 -0.44822094 -0.7081721 -0.26683298 -0.34426907
-0.25491953 -0.09942651 -0.94424105 -0.15283902 -0.49122745 -0.59219754 -0.050549436 -0.08088374
-0.5795466 -0.3598031 0.12152869 -0.2519641 -0.5822292 -0.7572106 0.05097059 -0.019934518
-0.6831615 -0.474045 -1.0425072 -0.4434887 -0.20287512 -0.075123236 -0.7111366 -0.25123
-0.0724467 -0.4020723 -0.3463722 -0.4712108 -0.2843768 -0.21426907 -1.0138702 -0.2857772
-0.35830322 -0.7722717 0.2412855 -0.13192394 -0.2300271 0.059760246 -0.56016135 -0.34405604
-0.52124536 -0.4950631 -0.28492582 -0.9070697 0.03766252 -0.38095877 -0.23802146 -0.2488371
-0.24282409 -0.6860395 -0.6279552 -0.09435997 -0.19480519 -0.6531552 -0.68078583 -0.2586279
-0.92154187 -0.5611446 -0.4349228 -0.2937764 -0.2395116 0.010884624 -0.34902295 -0.062032685
-0.36324817 -0.6801903 -0.19928157 -0.56252795 -1.1458652 -0.37898546 -0.36213288 -0.5425397
0.072225146 -0.26964477 -0.4660369 -0.15728213 -0.18550761 -0.49215817 -0.031627335 -0.341018
-0.14342676 -0.2541376 -0.22814828 -0.33925033 -0.25519893 0.08304835 -0.5588239 -0.5167696
-0.20898552 -0.6934746 -0.57430685 -0.11100671 -0.53357244 -0.3051258 0.055765867 -0.26046148
0.10972223 -0.7798817 -0.46202102 -0.50701296 -0.42317224 -0.25602308 -0.3648442 -0.093472585
00000000: 2190 62bf d166 5bbe 0be0 b5be 8613 28be
00000010: 1d5c e6be 23ef a4be a619 96bd b7d5 98be
00000020: 220f be3d 2ed5 83be 8167 89be a484 09bf
00000030: fdc3 26be f913 c1be af51 12bf 66ea 66be
00000040: c801 adbd 9cfe dcbd 1cd1 cbbe 0e6d 81be
00000050: 377d e5be c44a 35bf 559e 88be 0944 b0be
00000060: d084 82be 20a0 cbbd c8b9 71bf d581 1cbe
00000070: 2a82 fbbe 429a 17bf ed0c 4fbd 60a6 a5bd
00000080: 2a5d 14bf 1d38 b8be 09e4 f83d 7001 81be
00000090: f90c 15bf 8ed8 41bf 8ac6 503d b74d a3bc
000000a0: ace3 2ebf 07b6 f2be e070 85bf f310 e3be
000000b0: 7fbe 4fbe 36da 99bd 0c0d 36bf 38a1 80be
000000c0: ef5e 94bd 6cdc cdbe b257 b1be 8b42 f1be
000000d0: d699 91be 5a69 5bbe 80c6 81bf 6451 92be
000000e0: 8573 b7be 99b3 45bf 8c13 773e 1217 07be
000000f0: 398c 6bbe 29c7 743d bc66 0fbf 1d28 b0be
00000100: 5670 05bf e978 fdbe cce1 91be b835 68bf
00000110: 0444 1a3d 070d c3be e6bb 73be 27cf 7ebe
00000120: e1a6 78be 49a0 2fbf acc1 20bf cd3f c1bd
00000130: 037b 47be 2e35 27bf fb47 2ebf e06a 84be
00000140: 2bea 6bbf 2ca7 0fbf 34ae debe dc69 96be
00000150: 8742 75be 6c55 323c 23b3 b2be fc15 7ebd
00000160: aafb b9be f420 2ebf 7810 4cbe d501 10bf
00000170: b6ab 92bf 620a c2be 7b69 b9be e2e3 0abf
00000180: c7ea 933d e10e 8abe 639c eebe 910e 21be
00000190: b5f5 3dbe 28fc fbbe aa8b 01bd e999 aebe
000001a0: 77de 12be 531e 82be b49f 69be 38b2 adbe
000001b0: 6fa9 82be 4115 aa3d 150f 0fbf 034b 04bf
000001c0: 4d00 56be 8d87 31bf c605 13bf 7c57 e3bd
000001d0: 3498 08bf 7339 9cbe c06a 643d 355b 85be
000001e0: 0cb6 e03d 54a6 47bf 058e ecbe 9acb 01bf
000001f0: 08aa d8be 7515 83be dccc babe 8e6e bfbd

actor.4.weight f4 [128, 128]
-0.27600333 -0.23502783 -0.0022043225 0.22123957 0.19012538 -0.23791066 -0.0100645805 -0.16669068
0.06995568 0.0676972 0.04140545 -0.10483181 -0.1586041 -0.8234805 0.22051263 -0.17709547
-0.06209703 -0.026030412 -0.08980951 -0.0045844167 -0.41867328 0.078598484 0.07143833 -0.15029937
-0.102417536 0.07809663 0.12294433 -0.13078474 0.20476052 0.32701248 0.16127513 -0.003597622
-0.114594206 -0.15998639 -0.03217636 0.18287416 0.11055302 0.055694535 0.15174462 0.019223284
-0.031614993 -0.0032548753 0.10016397 0.0024133392 0.107811034 -0.013761337 0.3864901 0.029641125
-0.25674784 0.085572235 -0.33042204 -0.22057524 0.017608052 0.010007002 -0.26159668 0.11689734
0.17758894 0.37032452 -0.1952242 -0.20619556 -0.33020568 -0.3241859 0.3573014 0.032043792
0.028296348 -0.251651 0.058672518 0.051888086 0.044749536 -0.6133664 -0.04766629 -0.6062503
0.21498019 0.09258004 0.19465245 -0.5310277 -0.33270556 -0.11477424 0.0054095183 -0.21964316
-0.03286529 -0.16684303 -0.049014844 -0.15962487 -0.8722996 -0.08822058 0.09952504 -0.015258929
-0.311186 0.07741077 0.11758226 0.3531873 -0.039888985 0.06524809 0.08306615 -0.069010034
-0.43225104 0.2639055 -0.047097314 0.04518766 0.31597465 0.083278455 0.09506211 0.1038041
-0.23828334 0.045366175 -0.2724414 0.113574766 -0.3747943 -0.34911472 -0.45541328 -0.030885918
-0.0048530465 0.31355968 -0.30772159 0.13179499 0.005533647 0.19755943 -0.38034984 0.041485686
-0.30419907 -0.045231435 0.043844175 0.11862416 0.057919685 -0.08183621 0.09153786 -0.15132417
-0.5271111 0.18961084 -0.12944683 -0.028868519 0.118135676 0.15863338 -0.15302595 -0.21889737
-0.05865118 -0.08283447 -0.20109384 -0.026007691 0.10573088 0.31024936 -0.24192156 0.19868656
-0.010873506 -0.07834582 -0.026232587 -0.025370726 -0.22440086 0.23562242 0.059750527 -0.017388193
-0.03249444 -0.052495442 -0.09154195 0.08686989 0.1154859 0.09429636 0.0947747 -0.16228774
-0.15666664 0.14498729 0.14734238 -0.16474554 0.27278167 0.013625023 -0.10953352 -0.16081345
-0.039885014 -0.17700644 0.11339841 -0.16492337 0.05365922 0.21168128 0.037829053 0.026665395
0.45455724 -0.36314934 0.1374708 -0.050064106 -0.1234368 0.13108902 0.010459999 0.10304108
-0.024528578 0.004457605 -0.48603663 -0.19873716 0.19038318 -0.109378435 -0.14315785 -0.011751026
-0.08518861 0.111077264 0.11359012 0.11035937 0.10389712 0.051942326 0.16714579 -0.07347772
-0.10005047 -0.38824883 -0.59376454 0.15164344 -0.033497535 -0.18451127 0.29472026 -0.4066038
-0.113931976 -0.18575872 0.15896739 0.133787 -0.008043105 -0.18783465 -0.0013247658 -0.06936663
-0.15838972 0.5942001 -0.21369034 0.07835837 0.19494677 0.18207975 -0.10672811 0.07851263
-0.10556332 -0.19447425 -0.09017253 -0.2885406 -0.04675783 0.03408418 -0.019202728 0.3408145
0.12626071 -0.17273419 0.26393598 0.13610466 -0.03899203 -0.020449398 -0.24430446 0.18873696
0.13905008 -0.045244083 0.074056506 -0.049358174 0.289252 -0.099061996 0.1518364 0.16675837
0.08883722 -0.2196099 -0.16617301 0.02751659 -0.16778126 -0.21838923 0.011698586 0.07717513
00000000: 4f50 8dbe 23ab 70be 6576 10bb a08c 623e
00000010: 3ab0 423e da9e 73be e9e5 24bc f6b0 2abe
00000020: ec44 8f3d d4a4 8a3d c398 293d 0fb2 d6bd
00000030: 1d69 22be 9ecf 52bf 10ce 613e 8458 35be
00000040: 7559 7ebd bb3d d5bc 0cee b7bd e038 96bb
00000050: 585c d6be 3ef8 a03d 424e 923d 14e8 19be
00000060: 49c0 d1bd 20f1 9f3d 3dca fb3d 6fec 05be
00000070: beac 513e 2e6e a73e 4f25 253e 15c6 6bbb
00000080: 5eb0 eabd 79d3 23be 5ccb 03bd 5d43 3b3e
00000090: 9f69 e23d f41f 643d f162 1b3e 267a 9d3c
000000a0: b97e 01bd bf4f 55bb c422 cd3d 1d29 1e3b
000000b0: 08cc dc3d 3b77 61bc 08e2 c53e f2d1 f23c
000000c0: 7474 83be 7f40 af3d 142d a9be 7ade 61be
000000d0: c33e 903c 69f4 233c 00f0 85be df67 ef3d
000000e0: e0d9 353e 2d9b bd3e dae8 47be ee24 53be
000000f0: b810 a9be b2fb a5be 36f0 b63e 5a40 033d
00000100: becd e73c 66d8 80be 9852 703d 9a88 543d
00000110: 4a4b 373d 9505 1dbf ba3d 43bd 3833 1bbf
00000120: c423 5c3e 9b9a bd3d f952 473e 6ef1 07bf
00000130: 6258 aabe c20e ebbd 5442 b13b 23ea 60be
00000140: c19d 06bd e6d8 2abe cac3 48bd b474 23be
00000150: 074f 5fbf feac b4bd c9d3 cb3d 9600 7abc
00000160: c553 9fbe 8a89 9e3d f8ce f03d f7d4 b43e
00000170: a262 23bd caa0 853d 961e aa3d 2255 8dbd
00000180: 0250 ddbe 9f1e 873e 1de9 40bd b216 393d
00000190: 6ec7 a13e e58d aa3d ecaf c23d 3e97 d43d
000001a0: 8c00 74be e2d1 393d 707d 8bbe e399 e83d
000001b0: 0ae5 bfbe 2abf b2be ee2b e9be 7704 fdbc
000001c0: 4e06 9fbb e58a a03e af8d 9dbe 44f5 063e
000001d0: 9853 b53b 054d 4a3e 37bd c2be e5ec 293d
000001e0: fbbf 9bbe 9944 39bd f395 333d 39f1 f23d
000001f0: 313d 6d3d be99 a7bd 3478 bb3d b9f4 1abe
00000200: c1f0 06bf 5829 423e b68d 04be ac7d ecbc
00000210: 1ef1 f13d ca70 223e d6b2 1cbe a226 60be
00000220: 383c 70bd 1ea5 a9bd 8beb 4dbe 150e d5bc
00000230: 6e89 d83d 01d9 9e3e 49ba 77be 7d74 4b3e
00000240: ca26 32bc c673 a0bd b9e5 d6bc 45d6 cfbc
00000250: 57c9 65be 0147 713e f8bc 743d af71 8ebc
00000260: e418 05bd 7605 57bd 597a bbbd d7e8 b13d
00000270: df83 ec3d 731e c13d 3d19 c23d c22e 26be
00000280: 386d 20be 8c77 143e ece0 163e 0eb3 28be
00000290: 0aaa 8b3e 7d3b 5f3c 1c53 e0bd 48ac 24be
000002a0: 785e 23bd 2d41 35be 6d3d e83d ace1 28be
000002b0: c5c9 5b3d fac2 583e a3f2 1a3d 6371 da3c
000002c0: babb e83e b6ee b9be 25c5 0c3e 0510 4dbd
000002d0: 6fcc fcbd 333c 063e 6a60 2b3c 3407 d33d
000002e0: 28f0 c8bc 1a11 923b cbd9 f8be c181 4bbe
000002f0: cff3 423e cd01 e0bd f997 12be 6087 40bc
00000300: 5e77 aebd 7a7c e33d f0a1 e83d 1804 e23d
00000310: 03c8 d43d 7ac1 543d 4428 2b3e 7d7b 96bd
00000320: 43e7 ccbd 8dc8 c6be f400 18bf 6b48 1b3e
00000330: b634 09bd 86f0 3cbe 93e5 963e 602e d0be
00000340: 2b55 e9bd 8937 3ebe 59c8 223e 76ff 083e
00000350: 3ac7 03bc ba57 40be c4a3 adba 1710 8ebd
00000360: ea30 22be 7f1d 183f a4d1 5abe 5a7a a03d
00000370: 20a0 473e 1d73 3a3e 4494 dabd 3bcb a03d
00000380: 9531 d8bd 4224 47be 60ac b8bd 98bb 93be
00000390: 2385 3fbd da9b 0b3d 0a4f 9dbc 3d7f ae3e
000003a0: 7d4a 013e 3be1 30be 9e22 873e 055f 0b3e
000003b0: 1bb6 1fbd 7f85 a7bc f32a 7abe 4344 413e
000003c0: 2563 0e3e dc51 39bd f0aa 973d cc2b 4abd
000003d0: d718 943e 04e1 cabd 007b 1b3e b5c2 2a3e
000003e0: 4af0 b53d 6be1 60be 4229 2abe 796a e13c
000003f0: dace 2bbe 6da1 5fbe 6dab 3f3c ff0d 9e3d

actor.4.bias f4 [128]
-0.27374282 -0.23746061 -0.4597856 -0.2340718 -0.43691036 -0.26733786 0.13777241 -0.56809604
-0.35925683 -0.6057469 -0.8203253 -0.5361369 -0.23677976 -0.21505268 -0.1781742 -0.2525783
0.004885317 -0.16773248 -0.17885353 -0.046591252 -0.8419663 -0.3981471 0.0526603 -0.60794014
-0.3647012 0.07953384 -0.5324815 0.0024568278 -0.44997168 -0.5016754 -0.4857469 -0.76543474
-0.36281604 -0.36727697 -0.43615368 -0.68477076 -0.21751823 -0.4068315 -0.38743764 -0.2767438
-0.20396578 -0.25265658 -0.56607604 -0.37075746 -0.45222104 -0.1205958 -0.18464677 -0.4903027
-0.28392354 -0.49405515 -0.12834045 -0.28413042 -0.36034134 -0.32901973 -0.27122104 -0.20574957
-0.41892868 -0.26353237 -0.37169522 -0.30512306 -0.2034868 -0.33464956 -0.5282182 -0.71718025
-0.45047218 -0.28454733 -0.3555734 0.05070837 -0.43062106 -0.2711577 -0.1811756 -0.28353193
-0.08080961 -0.34913492 -0.12646338 -0.28574383 -0.040404305 -0.20583418 -0.2588834 -0.46727875
-0.24303836 -0.0965189 -0.18171376 -0.024257863 -0.21538492 -0.45915177 -0.41215503 -0.41370076
-0.30813065 -0.9255781 -0.1480157 -0.29887658 -0.33219114 -0.30283463 -0.3286775 -0.46579385
0.055953976 -0.30455992 -0.14258565 -0.47673854 -0.14225335 -0.31171438 -0.5084109 -0.3421839
-0.5385781 -0.19995496 -0.19798917 -0.1339067 -0.38946065 -0.09241619 -0.33404827 -0.22195749
-0.18976483 -0.47566193 -0.53432584 -0.5342832 -0.44087127 -0.18751802 -0.23152034 -0.35963964
-0.58816206 -0.24718253 -0.5590761 0.14371102 -0.5024737 -1.1520095 -0.2549811 -0.34425163
00000000: 0528 8cbe e028 73be 0569 ebbe 85b0 6fbe
00000010: b7b2 dfbe 82e0 88be 3614 0d3e be6e 11bf
00000020: 83f0 b7be 3b12 1bbf d700 52bf 4540 09bf
00000030: 6576 72be c536 5cbe 4c73 36be f151 81be
00000040: 0215 a03b 10c2 2bbe 6125 37be 78d6 3ebd
00000050: 1a8b 57bf f0d9 cbbe 54b2 573d f7a1 1bbf
00000060: 1eba babe a3e2 a23d b550 08bf bb02 213b
00000070: b062 e6be cd6d 00bf d1b3 f8be 88f3 43bf
00000080: 06c3 b9be ba0b bcbe 894f dfbe 234d 2fbf
00000090: 19bd 5ebe 384c d0be 3a5e c6be 5db1 8dbe
000000a0: 68dc 50be 345c 81be 5cea 10bf ecd3 bdbe
000000b0: 8489 e7be eefa f6bd 0b14 3dbe f508 fbbe
000000c0: 6d5e 91be ccf4 fcbe ae6b 03be 8b79 91be
000000d0: a97e b8be 4675 a8be 7cdd 8abe 04b0 52be
000000e0: d27d d6be b7ed 86be d64e bebe 1739 9cbe
000000f0: d85e 50be 3057 abbe 4f39 07bf 2099 37bf
00000100: 4aa4 e6be 30b0 91be b70d b6be 94b3 4f3d
00000110: 5d7a dcbe 2fd5 8abe 1986 39be 192b 91be
00000120: 827f a5bd d0c1 b2be 9e7f 01be 044d 92be
00000130: fc7e 25bd 32c6 52be 5d8c 84be 293f efbe
00000140: 0cdf 78be b3ab c5bd 2c13 3abe 6db8 c6bc
00000150: dd8d 5cbe f115 ebbe fc05 d3be 96d0 d3be
00000160: 4dc3 9dbe b0f2 6cbf 6d91 17be 5a06 99be
00000170: f514 aabe 240d 9bbe 6b48 a8be 887c eebe
00000180: ff2f 653d 47ef 9bbe f901 12be 1317 f4be
00000190: ddaa 11be 0799 9fbe 3727 02bf ba32 afbe
000001a0: 41e0 09bf fec0 4cbe acbd 4abe d71e 09be
000001b0: 6367 c7be b344 bdbd 6008 abbe d348 63be
000001c0: b651 42be f689 f3be 94c9 08bf c9c6 08bf
000001d0: e1b9 e1be b904 40be ab13 6dbe b022 b8be
000001e0: ca91 16bf 6b1d 7dbe 9c1f 0fbf fb28 133e
000001f0: 1ea2 00bf 0c75 93bf e28c 82be c041 b0be

actor.6.weight f4 [12, 128]
-0.03903603 0.07645969 -0.0036836916 -0.006968467 -0.041357208 -0.025502078 -0.00910633 -0.066572346
-0.03023393 0.028075092 -0.04941453 0.07193928 -0.036831252 -0.032168172 -0.02118843 0.08603966
-0.0004978777 -0.037288092 0.0150512345 -0.021826757 0.0625017 -0.03880878 0.012515594 0.11406222
-0.02850829 0.019476833 0.056469064 0.008121641 0.018171962 -0.00093287224 0.05626611 0.013656926
0.025279848 -0.018124297 -0.004000952 0.01713493 0.015057176 -0.013540936 -0.05847295 0.008350696
0.0014998891 0.011031513 0.09484455 -0.050571397 -0.10000991 -0.060445324 -0.039233305 0.040229302
0.01639379 0.02432049 0.055776283 -0.00620576 0.018484011 -0.029055601 0.019793887 -0.01409503
0.06708808 -0.09009294 0.02571793 -0.024767501 -0.029648384 -0.036691554 -0.06980906 -0.07632516
0.04485583 0.0016748228 0.019413881 0.025781443 0.050273817 0.040868524 0.015345078 -0.0075454074
0.019482527 0.0051668095 0.009168993 0.07708718 0.040839944 -0.011567543 -0.020626796 0.011323008
0.020990768 0.017378816 0.002817668 -0.009520343 0.13470164 -0.06962282 -0.0053193425 0.008156939
-0.06416886 -0.020026924 -0.000780961 -0.07903837 0.0060730856 0.026039641 -0.0038609004 0.04763053
0.078443125 0.054848697 -0.01098101 0.00081141724 0.080317855 0.0040926156 -0.0811112 -0.023175683
0.04916611 0.022733793 -0.006265133 0.015287838 0.029573232 -0.012071293 0.022365013 -0.033970505
0.03628643 0.041708887 0.05853915 0.026212076 -0.013355277 -0.017345505 0.030598706 0.03400141
-0.031105435 -0.036725882 0.049648896 -0.012509993 0.0041071065 -0.1097063 -0.021121502 -0.026314316
-0.020190123 -0.011017215 0.016787253 0.010353341 0.022779727 0.0466896 0.0036234616 -0.045121882
0.0065169455 -0.0162989 -0.027086942 0.04880277 -0.08935545 0.1105058 -0.030196205 0.035429254
0.010574276 -0.054422732 -0.03939698 -0.0058378377 -0.024321226 0.006816277 -0.0029363711 -0.07392867
0.015530525 0.014605438 0.021963606 -0.004946288 0.021479921 -0.037858136 0.032046255 0.024593385
-0.048318606 0.009030554 0.019817995 -0.015266815 -0.009337227 0.031746358 -0.022810822 -0.0021292602
0.034110967 -0.033652388 0.1031702 -0.014132514 -0.07948763 0.009083077 -0.04140124 0.018201161
0.06790594 0.012559541 0.086915135 -0.017800491 0.04723463 -0.04018251 0.012247894 0.003040932
0.03239759 0.005487705 0.050457973 0.005234068 -0.043980293 -0.013537465 0.0072948355 -0.043111887
0.056437254 0.010981322 0.02030706 -0.01483699 -0.0034490293 0.029658314 0.07602174 -0.016315367
0.08414718 0.057816133 0.007781429 -0.002516958 0.027851697 0.008031497 -0.019751597 0.027054224
0.036433365 -0.057708316 -0.057676643 -0.025109839 0.08357399 -0.061014384 -0.028345758 -0.0073829223
-0.104779124 0.001347054 0.04174125 -0.05143985 -0.0087647 -0.048595775 -0.035350274 -0.0005871791
0.07805011 -0.00316207 0.025603542 0.0044821207 0.00020949775 0.034505535 -0.026222311 0.019228702
0.06487223 0.0036741565 0.05393616 -0.012618346 0.032326266 0.02304443 0.0014544973 -0.012226511
0.0025009927 -0.00093753287 0.011783154 -0.024338974 -0.04488228 0.011625796 -0.075583026 0.0037876458
-0.021203985 -0.029608177 -0.011876468 -0.022489464 -0.026935952 -0.029188138 0.004497523 0.03858827
00000000: 3fe4 1fbd e696 9c3d 176a 71bb bd57 e4bb
00000010: 2d66 29bd bce9 d0bc b732 15bc 1557 88bd
00000020: 26ad f7bc bcfd e53c e466 4abd e754 933d
00000030: 5edc 16bd c6c2 03bd 5c93 adbc 9035 b03d
00000040: 0284 02ba 66bb 18bd 7499 763c 07ce b2bc
00000050: e400 803d f5f5 1ebd 350e 4d3c 7499 e93d
00000060: 388a e9bc e18d 9f3c 1b4c 673d a210 053c
00000070: 5edd 943c ff8b 74ba 4b77 663d 4dc1 5f3c
00000080: af17 cf3c 6879 94bc 6b1a 83bb 8d5e 8c3c
00000090: 60b2 763c cdda 5dbc 5581 6fbd 5cd1 083c
000000a0: ed97 c43a 85bd 343c dc3d c23d f423 4fbd
000000b0: ffd1 ccbd 8495 77bd 1ab3 20bd 7bc7 243d
000000c0: 454c 863c c43b c73c ac75 643d b059 cbbb
000000d0: c86b 973c 0306 eebc ca26 a23c d7ee 66bc
000000e0: 7a65 893d a682 b8bd 69ae d23c 37e5 cabc
000000f0: 2be1 f2bc e249 16bd 0df8 8ebd 5e50 9cbd
00000100: bfba 373d ba85 db3a dc09 9f3c 9b33 d33c
00000110: ebeb 4d3d c165 273d ec69 7b3c 773f f7bb
00000120: d299 9f3c 574e a93b 8b39 163c e2df 9d3d
00000130: c947 273d cb85 3dbc 87f9 a8bc 2384 393c
00000140: d5f4 ab3c 055e 8e3c a0a8 383b 36fb 1bbc
00000150: 3aef 093e 6996 8ebd e14d aebb afa4 053c
00000160: f76a 83bd 810f a4bc 68b9 4cba dede a1bd
00000170: bc00 c73b 1651 d53c 2907 7dbb 3b18 433d
00000180: caa6 a03d 07a9 603d b2e9 33bc 4ab5 543a
00000190: b07d a43d 591b 863b a11d a6bd eeda bdbc
000001a0: 6762 493d 383c ba3c bf4b cdbb d779 7a3c
000001b0: 9043 f23c acc6 45bc d536 b73c a824 0bbd
000001c0: 14a1 143d f0d6 2a3d bfc6 6f3d b5ba d63c
000001d0: 17d0 5abc 2918 8ebc 23aa fa3c 1045 0b3d
000001e0: d3d0 febc e16d 16bd a45c 4b3d b7f6 4cbc
000001f0: e894 863b b2ad e0bd 0007 adbc 1f91 d7bc
00000200: c265 a5bc 8d81 34bc 6c85 893c 0fa1 293c
00000210: 8d9c ba3c 983d 3f3d 9977 6d3b b9d1 38bd
00000220: 1a8c d53b 4585 85bc 6fe5 ddbc 6ae5 473d
00000230: fdff b6bd dd50 e23d 085e f7bc 441e 113d
00000240: ba3f 2d3c 5fea 5ebd ba5e 21bd 554b bfbb
00000250: 4f3d c7bc 135b df3b 2270 40bb ea67 97bd
00000260: be73 7e3c a64b 6f3c 05ed b33c 7914 a2bb
00000270: a9f6 af3c 2211 1bbd ef42 033d 1178 c93c
00000280: bbe9 45bd e4f4 133c 5959 a23c aa21 7abc
00000290: 2bfb 18bc 7808 023d c3dd babc 0f8b 0bbb
000002a0: f1b7 0b3d 16d7 09bd e64a d33d 0f8c 67bc
000002b0: 69ca a2bd 30d1 143c 5994 29bd 9a1a 953c
000002c0: 4512 8b3d 88c6 4d3c 9000 b23d 56d2 91bc
000002d0: 1979 413d 6a96 24bd 64ab 483c 5f4a 473b
000002e0: 56b3 043d 35d2 b33b 05ad 4e3d 8b82 ab3b
000002f0: ae24 34bd 3ecc 5dbc 8409 ef3b 1796 30bd
00000300: c02a 673d 01eb 333c fe5a a63c d916 73bc
00000310: 1c09 62bb fef5 f23c 49b1 9b3d cea7 85bc
00000320: 5b55 ac3d 9cd0 6c3d 5cfb fe3b 8cf3 24bb
00000330: 3e29 e43c 8a96 033c 1ace a1bc d2a0 dd3c
00000340: 273b 153d 8e5f 6cbd 583e 6cbd 26b3 cdbc
00000350: d728 ab3d 38ea 79bd 5d35 e8bc 71ec f1bb
00000360: 7096 d6bd a28f b03a dff8 2a3d 98b2 52bd
00000370: d199 0fbc 5d0c 47bd 73cb 10bd ecec 19ba
00000380: bcd8 9f3d bb3a 4fbb 85be d13c c1de 923b
00000390: a0ac 5b39 ad55 0d3d 2cd0 d6bc 8385 9d3c
000003a0: bbdb 843d 1eca 703b 2aec 5c3d 2ebd 4ebc
000003b0: 8c68 043d acc7 bc3c d5a4 be3a b451 48bc
000003c0: b2e7 233b c4c4 75ba 210e 413c 8762 c7bc
000003d0: 7bd6 37bd 1f7a 3e3c 46cb 9abd 273a 783b
000003e0: fbb3 adbc d98c f2bc 8495 42bc d33b b8bc
000003f0: c9a8 dcbc f61b efbc f55f 933b bc0e 1e3d

actor.6.bias f4 [12]
0.23533215 0.26297924 0.083207175 -0.048969578 0.2748077 0.05773372 -0.29865968 -0.16526526
0.07936787 -0.09523247 0.17103745 0.14785819
00000000: e9fa 703e 37a5 863e 8668 aa3d 5394 48bd
00000010: 98b3 8c3e 317a 6c3d ece9 98be 4c3b 29be
00000020: 9f8b a23d 3e09 c3bd 7124 2f3e 2368 173e
