checkpoints/policy_humanoid.onnx (onnx, 288061 bytes, 8 tensors)

actor.0.weight f4 [256, 75]
000000 0e cd 20 3f ec f9 4a 3f 45 b1 c4 be f6 df 39 be
       0.6281289 0.792876 -0.38416496 -0.1815184
000010 a1 91 db 3d 55 f0 3f 3d 9d 07 04 3f ee 85 50 3f
       0.10721136 0.046860058 0.51574117 0.8145436
000020 8d 43 91 3d 92 50 5a 3e 3f e2 b8 bf fa 11 15 3f
       0.070929624 0.21319798 -1.4444045 0.58230555
000030 15 7d 0f bf 03 36 80 bf 36 ff a1 3f 05 f5 37 bf
       -0.56050235 -1.0016483 1.2656009 -0.71858245
000040 42 3d 0a 3f 0f dd 3c 3e 1a e2 85 3f 1e 64 62 3f
       0.5399972 0.18443702 1.0459626 0.88434017
000050 75 14 11 3f 45 f7 5d bf ec 98 45 bf 31 0a 09 3f
       0.5667184 -0.8670543 -0.77186465 0.53531176
000060 2b cd 22 3f 3d 09 4f be 0e 8d 4d 3d ca 54 bb bd
       0.6359431 -0.20218368 0.05018335 -0.091470316
000070 cb d9 04 3e c7 5e 23 be 06 0f d5 3e 10 b2 81 3b
       0.12973706 -0.15954123 0.41613024 0.0039579943
000080 6a 43 da bc c8 a9 be 3a 7f 8e 42 bb 9a ca a4 3c
       -0.026643474 0.0014546448 -0.0029686985 0.02011614
000090 84 4e 76 bd 36 2a 37 3c 7d d6 aa 3c 95 bd 11 3d
       -0.060133472 0.011179497 0.02085423 0.03558119
0000a0 05 22 cb b9 67 8b 30 3d 7f 63 14 3d 04 f0 c1 3c
       -0.00038744524 0.043101694 0.0362277 0.023674019
0000b0 db fe 7b bd 03 1b 85 3c 50 67 75 3a f8 e8 8f 3c
       -0.061522346 0.016248232 0.0009361403 0.017567143
0000c0 ea 7d cc bc 80 30 7a 3d 49 d3 45 3d e9 c9 e4 bb
       -0.024962384 0.06108141 0.0482972 -0.0069820774
0000d0 fe 91 51 bd 06 f0 fa 3a cd 78 2f 3d 86 2d 99 3b
       -0.05116462 0.0019145019 0.042839814 0.0046746163
0000e0 df fc b3 bc 63 ff 8f 3c 06 18 9b 3d ea e9 2a bc
       -0.021971164 0.017577833 0.075729415 -0.010431746
0000f0 be 9d 16 3c 1d e1 45 bc 92 d8 6c bc e9 55 15 bd
       0.009192882 -0.012077597 -0.014455931 -0.036458883
000100 b4 68 43 bc a3 48 b8 3d 1d 23 d3 3d 75 13 eb bd
       -0.011926819 0.08998229 0.10309432 -0.114783205
000110 5a 7f 45 bc a9 ea e4 3c d1 3a da bd 31 3b f3 3c
       -0.012054289 0.027943926 -0.106557496 0.02969131
000120 64 44 58 bd b0 0a 1a 3c 60 ad 99 3d 84 17 99 3e
       -0.052799597 0.009401962 0.07503772 0.29900753
000130 ae 99 60 be b5 ae e7 bd 6e b8 62 3d 60 46 a9 bc
       -0.21933624 -0.113126196 0.055351667 -0.02066344
000140 72 ce 5c bd 36 1b 23 bf f2 a5 46 3f 86 9b 68 3e
       -0.05390782 -0.63713396 0.7759696 0.22715577
000150 0f c3 dc 3f a0 be 9f 3f 82 f7 2e 3e 0d 5b a8 be
       1.7247027 1.2480049 0.17086604 -0.32881966
000160 e7 fe a0 3f 8a be 73 bf 8f 2b ad bf cf 57 f3 3f
       1.257779 -0.95212615 -1.3528918 1.9011172
000170 43 96 e9 3e 02 a3 95 3d b1 7c 2a 3f df 37 83 be
       0.45622453 0.07306482 0.66596514 -0.25628564
000180 53 1c c0 be e8 0e 64 be 32 72 bc 3e 30 ea ac be
       -0.3752161 -0.22271311 0.36805874 -0.3377242
000190 5a 54 f6 3c d8 aa 53 3f ef 16 dc be 22 fd ff 3e
       0.030069519 0.8268256 -0.42986247 0.49997813
0001a0 dc 8e 2f be 72 d5 ae 3e 1f c5 fa 3a b8 18 c7 3a
       -0.1714434 0.3414722 0.0019132233 0.0015189862
0001b0 4b fa ab bb b7 26 6f 3d 7e 66 16 3d ab e6 97 bc
       -0.005248343 0.05838653 0.036718838 -0.018542608
0001c0 e3 86 d2 bd e7 8c f5 bc 6f 9b 5e 3c ab d7 09 3d
       -0.10279634 -0.029974414 0.013586863 0.033652943
0001d0 b9 ef b4 bd a0 a6 42 3c 35 a2 9d bd 39 63 24 bd
       -0.08834786 0.011880547 -0.07696954 -0.04013369
0001e0 37 77 95 3c a6 81 f7 3c 70 49 45 bc 89 d8 93 3d
       0.018245323 0.030213188 -0.012041435 0.07219035
0001f0 d9 d8 84 3d 33 0d f8 3c b2 0a 57 bd 39 03 8e 3c
       0.06486673 0.030279731 -0.052500434 0.017335521
000200 bc cf a2 3d e0 f4 fb bc 3e c6 97 bb ab 83 8d 3b
       0.079497784 -0.030756414 -0.0046317866 0.0043186746
000210 4a ca 94 3c 01 b3 69 bd 06 8b 52 3c 23 be b6 3b
       0.018162865 -0.057055477 0.012850529 0.0055768653
000220 ed 31 56 3c 75 e1 f4 bc 94 db 8a bc 22 ee b6 bd
       0.013073427 -0.029892663 -0.016950406 -0.08932139
000230 8f 59 fd bd 96 dd aa bc de 48 78 bd 38 25 05 bc
       -0.123705976 -0.020857614 -0.060616367 -0.008126549
000240 ae 6a ac 3d 0a 08 c3 3d e9 40 d9 bd e9 a0 13 3e
       0.08418785 0.09523018 -0.10608084 0.14416851
000250 90 4e c2 bd bb a5 1c 3d 66 6b 81 be 3b fb 10 be
       -0.09487641 0.03824399 -0.2527725 -0.14158337
000260 03 64 20 bd 72 40 34 3e 10 0b f3 3d ae d0 df bd
       -0.03915788 0.17602709 0.118673444 -0.10928474
000270 f0 e9 dd 3e 6f 74 95 3f 7f 27 9f 3e da 18 fd bf
       0.43342543 1.1676158 0.3108482 -1.9773209
000280 e9 8b ac 3e fa bb 5c bf 3a ef 74 be e3 28 92 3d
       0.33700493 -0.8622433 -0.23919383 0.07136705
000290 be f5 e7 3e 55 06 58 bf 6f 17 c3 bf 71 44 4c bd
       0.45304674 -0.8438466 -1.5241526 -0.04986996
0002a0 b0 fb 86 3e 2d b8 50 bf 01 c2 73 bf a4 d7 2d be
       0.26363897 -0.8153103 -0.952179 -0.16976792
0002b0 d9 b7 ff bd 15 74 3d 3e 70 a4 5f be 91 3a ad be
       -0.12486238 0.18501313 -0.21840072 -0.33833745
0002c0 b0 94 be be 4a b8 23 bf 4b e3 79 bf df 5e 8f 3a
       -0.37222815 -0.6395308 -0.97612447 0.0010938308
0002d0 83 ab fb 3c 4f 2a 28 3d 26 32 95 3c cd f2 9e bc
       0.030721432 0.041055974 0.01821239 -0.019402886
0002e0 17 ea 05 3c c4 03 36 3d 6b 46 32 bc fe e6 2b bd
       0.008173487 0.044437185 -0.010881047 -0.04196834
0002f0 9e 8d d6 3c 8f 26 5f bd 57 60 46 bc c2 39 fc bc
       0.026190575 -0.05448013 -0.01210793 -0.03078926
000300 37 6b d1 39 96 08 4d 3b aa b7 bc 3d 15 77 05 3d
       0.00039943468 0.0031285635 0.09214719 0.03258427
000310 4c 83 22 bd 90 fb a9 bc fb 36 68 bc ec 2e 8d bc
       -0.039675996 -0.020749837 -0.014173265 -0.017234288
000320 30 83 a8 3c d4 68 0f bd 6d 58 57 bb e0 76 e0 bb
       0.020570368 -0.03501208 -0.0032859102 -0.0068501085
000330 cb d8 fd bc 6e 62 16 3c c4 51 a4 3d c9 f3 83 bd
       -0.030987164 0.009178741 0.08023408 -0.06442983
000340 1c c2 99 bd 6f 01 05 bd 9e 7d 17 3d f7 85 48 3d
       -0.075077266 -0.03247207 0.036985032 0.048955884
000350 00 29 a4 bd e4 be 23 3e 1d 4e c3 3d 43 16 03 be
       -0.08015633 0.15990788 0.09536383 -0.12801461
000360 9f 84 3f bc 10 49 0f bd 33 87 cc bd bd 87 5e bd
       -0.011689334 -0.034981787 -0.09986725 -0.05432867
000370 8e cf a1 3b 49 a8 00 3e 55 55 07 bd 07 b4 c1 3c
       0.0049380725 0.12564196 -0.033040363 0.023645414
000380 12 3b 7d bd db 28 53 3d 9a f0 3b be 84 35 4f 3e
       -0.061823912 0.051552635 -0.18353501 0.20235258
000390 40 1b 2f be 08 f0 5d be 80 db 11 be 84 c6 08 bf
       -0.17100239 -0.21673596 -0.14243889 -0.5342791
0003a0 31 48 0a bf f1 a7 2f 3d 1e dc 1e bf 6d 3a 89 be
       -0.54016405 0.04288477 -0.6205462 -0.26802388
0003b0 99 f1 fc bf a7 3e bf be 71 83 87 3f 51 c8 62 3f
       -1.976123 -0.37352487 1.0586988 0.8858691
0003c0 08 c7 9a 3e 60 4e ef 3f 93 b1 82 3e 49 3a de be
       0.30229974 1.8695793 0.25526103 -0.43403843
0003d0 43 ff 1e 3f 76 64 52 3f 57 2a 53 bd 54 fd f3 3e
       0.6210825 0.8218454 -0.05155405 0.47654212
0003e0 a9 4d a8 be 6b eb 10 3f 11 bc 2e 3f 50 02 2d 3f
       -0.3287175 0.5660922 0.68255717 0.67581654
0003f0 52 9f 08 3f 40 4c 8d 3e 4d 82 e6 bd 59 4e 03 3e
       0.53368104 0.27597237 -0.11255322 0.12822856

actor.0.bias f4 [256]
000000 c0 df 49 be 48 da 04 be 93 b9 94 be 14 80 b3 bd
       -0.1971426 -0.12973893 -0.29047832 -0.08764663
000010 48 57 03 3d 6d 61 eb bd 7c 35 a8 be 3c 9c 0e 3e
       0.03206566 -0.11493192 -0.32853305 0.13926786
000020 8f dc 04 bd 52 1f 83 3e bd a8 10 3d c3 89 6f be
       -0.032436904 0.25609833 0.03531717 -0.23392396
000030 77 a7 44 3d 86 8b 5a bd 19 67 1c be d1 ea fe bc
       0.04801127 -0.053355716 -0.15273704 -0.031117829
000040 a8 ba 14 3e 2f 27 20 3e f3 9b f1 3c 0b 22 2d 3e
       0.14524329 0.15639947 0.029493308 0.16907518
000050 6a 40 51 be ec 46 5a bd 79 06 9b 3d 98 4d 20 be
       -0.20434728 -0.053290293 0.07569594 -0.156546
000060 b3 ae 19 be 38 7b 9a 3e 7f 77 29 be e7 27 59 be
       -0.15008049 0.30172133 -0.1654949 -0.21206628
000070 aa a4 a5 bd 16 2d 7e be 09 e5 62 3d 76 76 49 3d
       -0.08088048 -0.24821886 0.055394206 0.04918524
000080 91 7c 48 bd 69 e0 16 be a6 99 88 be 06 64 2e be
       -0.04894692 -0.14734043 -0.26679724 -0.17030343
000090 2b 04 3e 3d 88 a0 a8 be 02 7c cb bd cb 30 25 be
       0.046390694 -0.32934976 -0.09935762 -0.16131894
0000a0 54 0b b0 bd a1 53 ba bc 45 22 ee 3c 8d 21 26 bd
       -0.08595911 -0.022744955 0.029069075 -0.04055934
0000b0 74 60 1d be e5 ec b5 bd 09 a4 42 bd 3d 2e 63 be
       -0.15368825 -0.08883075 -0.047519717 -0.22185607
0000c0 a6 79 54 be f4 73 91 be 47 4f d4 3c 3d a3 51 3c
       -0.2074953 -0.28408778 0.025916709 0.012795267
0000d0 a9 b0 f2 3c 2d 30 01 3d 61 9b 21 bc d0 ff 44 be
       0.029625254 0.031540085 -0.009863705 -0.1923821
0000e0 0b 9f ef bd 0e b8 d9 bd 03 2c 09 be 03 e4 05 3e
       -0.11700257 -0.10630809 -0.13395695 0.13075261
0000f0 32 fd cd bd 4a 1b 4d be ac 49 7f be 0d d8 28 3e
       -0.10058059 -0.20029941 -0.24930447 0.16488667
000100 07 a0 80 be ed b3 06 be 90 49 79 3d 08 60 b4 bd
       -0.2512209 -0.13154574 0.06086117 -0.08807379
000110 e0 c7 24 be c8 70 82 bd 1f df d6 3b b9 d2 da ba
       -0.16091871 -0.063691676 0.00655736 -0.001669488
000120 9a 1a 1f be 63 83 00 be 23 91 d3 bd 29 b3 c0 bd
       -0.15537491 -0.1255012 -0.10330417 -0.09409172
000130 45 a0 8f 3c d5 68 f6 bc 94 7b 43 be 97 fb 0c 3e
       0.017532477 -0.030079285 -0.1909011 0.13767849
000140 f7 6d d9 3d 13 e5 ef bc b2 2a 96 be 13 f1 38 bd
       0.10616677 -0.029284036 -0.2932945 -0.04515178
000150 67 13 1b 3d 8e 66 2d be 02 c0 68 3d 11 dd fc bc
       0.0378603 -0.16933653 0.056823738 -0.030867131
000160 92 d5 4c 3e 53 a4 b6 be ed b4 10 3e d8 af bf bd
       0.20003346 -0.35672244 0.14131518 -0.093597114
000170 13 85 89 be 95 38 7f bd 6b 0c 00 bd a1 46 82 be
       -0.2685934 -0.06230982 -0.031261843 -0.2544451
000180 27 31 f4 bd 1d 30 9b 3d e0 25 9b bd be 84 f2 bd
       -0.119234376 0.07577536 -0.075755835 -0.11841725
000190 66 c8 7c be aa 0e 8f 3d d5 47 27 be 94 b8 d4 3c
       -0.24685821 0.06985219 -0.16335995 0.02596692
0001a0 99 75 e1 3b 20 64 82 3e 9b 75 37 bd 66 98 e8 3d
       0.006880474 0.25467014 -0.04478989 0.11357193
0001b0 5e 5c 0e 3d c1 66 9b be 86 bf 3f 3e df 27 b8 bd
       0.034756057 -0.30351833 0.18725404 -0.0899198
0001c0 aa c5 4d bd 3d 32 22 3e 77 33 1c be b0 d4 af bd
       -0.050237335 0.15839477 -0.15254007 -0.08585489
0001d0 5e 64 b7 be e0 6c 7d bd 5f da 00 be a3 8e 9e be
       -0.35818762 -0.06187141 -0.12583302 -0.30968198
0001e0 ef 69 17 be d6 aa cb 3d fb a9 51 be 4d f3 ad bc
       -0.14786504 0.09944694 -0.20474999 -0.021234179
0001f0 c3 ad f3 bd e5 df 7f 3d 1a a8 4f be 3f 70 52 3c
       -0.11898377 0.06246938 -0.2027897 0.012844144
000200 53 44 c8 bd b9 c8 40 bb cc 11 16 be b8 9e 1c 3e
       -0.09778657 -0.0029416515 -0.14655226 0.15294921
000210 30 6c 1d be 41 de 6e bc a4 38 09 3e cf 13 ed bd
       -0.15373302 -0.014579357 0.13400513 -0.11576044
000220 db 79 20 be e6 58 6d be 01 38 56 be 11 b9 6b be
       -0.15671484 -0.23178443 -0.20919801 -0.23019816
000230 d6 e1 c0 3c e8 19 0e be ef 69 15 be fa 2e b8 bc
       0.023545187 -0.1387707 -0.14591192 -0.022483338
000240 84 7f 68 be 56 e8 4c be 4b e8 aa bd 07 2c 34 3c
       -0.22704893 -0.20010504 -0.083450876 0.010996825
000250 a8 e3 58 bd c7 8e 0a bb e2 f4 8b 3e fa f7 b6 bb
       -0.052951485 -0.002114223 0.27335268 -0.0055837603
000260 50 43 1b be c0 d4 7e bc 85 f6 56 ba 18 82 b1 3d
       -0.15162396 -0.015553653 -0.00082001864 0.086673915
000270 1f 0c 62 3e 36 bf c0 bd a1 55 1f be c3 69 0d be
       0.22074936 -0.094114706 -0.15560009 -0.13809876
000280 eb 5f 6b be 33 62 b0 be cd 6f ac 3d 07 c2 a2 be
       -0.22985809 -0.3444992 0.08419762 -0.31788656
000290 74 e5 66 be c4 6b 6f bd 6b b7 6e be 4a 15 0e 3d
       -0.22548467 -0.058452383 -0.23312156 0.03468827
0002a0 d7 6a 4f be 3d 3d 2b 3d eb 63 c4 3b c4 cc 5a bc
       -0.202556 0.04180645 0.0059933565 -0.013354484
0002b0 48 46 52 3e 53 f3 ad bd 82 10 94 bd 70 f0 19 be
       0.20534623 -0.08493676 -0.07229711 -0.15033126
0002c0 a0 b6 8a be fd 4e 2f be bc a2 b4 bd 01 39 b3 bd
       -0.27092457 -0.17119975 -0.088201016 -0.08751107
0002d0 36 9f b8 bd 81 2d e3 bd 67 69 c7 3d 16 74 11 be
       -0.09014742 -0.110926636 0.09736901 -0.1420444
0002e0 a7 5a 4d be ee 00 e7 bd 8d d7 08 3e 37 1a 6a 3d
       -0.20054112 -0.11279474 0.13363476 0.057153907
0002f0 97 ab af bd d0 a6 5d be 08 97 8f be 13 a7 ac bd
       -0.0857765 -0.21645665 -0.28044915 -0.084303044
000300 f4 c8 13 bb 5f c2 33 be 38 85 ef 3d 82 6c 00 be
       -0.0022550197 -0.17554615 0.11695331 -0.12541392
000310 30 3b 13 3c 01 70 88 3c af 05 33 be f7 c4 af 3b
       0.008986279 0.01665497 -0.17482637 0.005364056
000320 7d 12 0d be 4c c2 82 be 67 d0 b3 3d cd a3 e9 bd
       -0.13776584 -0.25538862 0.08779984 -0.11408196
000330 ca 10 79 bd 79 bb 66 3d 61 23 f3 3c 10 92 39 3e
       -0.060807027 0.05633113 0.029679956 0.18122125
000340 af 89 e1 bb 52 ef 73 3c 8c f0 f3 bd a7 b6 85 bc
       -0.0068828682 0.014888601 -0.11911115 -0.016322447
000350 f3 70 ec 3d 02 29 2e be 2b 8d 1b be f1 08 02 3d
       0.11544981 -0.1700783 -0.1519057 0.03174681
000360 49 2a 09 be 87 aa 3c bd 39 43 fc 3d c8 05 7e 3e
       -0.13395037 -0.046061065 0.12317509 0.24806893
000370 2b 79 74 be 2a 6d d2 3d 5f af f9 3d a7 47 7a 3e
       -0.23874347 0.10274728 0.121916525 0.24441396
000380 45 99 b6 3c e7 89 6a be 4d 2e 26 bd 05 19 0d be
       0.022289881 -0.22904168 -0.0405715 -0.13779075
000390 7b f4 4a 3e 50 0b 6c be cd bd cc 3b 63 dc 08 3c
       0.19819824 -0.2305119 0.006248212 0.008353326
0003a0 80 3b e6 bd f5 e9 6a be b3 a2 98 be 56 7b 21 be
       -0.112418175 -0.2294081 -0.2981163 -0.15769705
0003b0 59 bf 47 bc 70 18 67 be e5 cd 6b be 00 94 94 bc
       -0.012191617 -0.22567916 -0.23027761 -0.018136978
0003c0 fd b7 9f 3d 64 7a 98 3d da 99 03 be c6 ad 6f 3d
       0.07798765 0.07445219 -0.12851658 0.058515333
0003d0 9c 40 a4 3d 59 3a 1b be 6d 32 f7 bd f5 92 61 be
       0.08020136 -0.15158977 -0.12070165 -0.22028716
0003e0 4a 90 53 be b8 e5 9d 3d a0 b8 e5 3d 74 db 32 be
       -0.2066051 0.07709831 0.11216855 -0.17466527
0003f0 96 e4 5b be 21 17 08 3d ac 76 90 be a6 ad 25 bd
       -0.21473917 0.033225182 -0.2821554 -0.040448807

actor.2.weight f4 [128, 256]
000000 ba 6c 83 3d 1f 3c 28 3c eb 74 22 be d6 0f 28 3e
       0.06417222 0.01026824 -0.15864913 0.16412291
000010 1f c6 97 bd eb 89 8d 3e b6 17 f2 3c dd 76 e4 3c
       -0.074108355 0.27644286 0.029552322 0.02788871
000020 b4 0b a2 3d df 21 b3 3c 23 7b e0 39 43 e4 83 bd
       0.079123884 0.021866737 0.00042816353 -0.06440022
000030 a4 74 57 3d 05 79 36 3c 45 73 04 3c df af 83 3d
       0.05260147 0.011137252 0.008084123 0.06430029
000040 db 9d b0 bc a4 76 55 3e 26 f6 17 3e 25 0b 9a 3b
       -0.021559646 0.20846039 0.14839992 0.0047010356
000050 b4 1a 80 3b ee ab b8 bd 50 ce 56 3d bb f1 6b bd
       0.0039094333 -0.09017168 0.05244285 -0.05760358
000060 6a 72 e5 3c 1a 41 eb 3d 4b 37 99 bd e2 8f f3 bd
       0.028008658 0.114870265 -0.074812494 -0.11892678
000070 a7 06 76 bd ea 1b 92 3c c7 0f 0c 3e db fe 63 3e
       -0.060064938 0.017835576 0.13677894 0.22265188
000080 08 5a 9f 3d f4 e7 66 3d 23 f8 c9 3d fe 64 a7 3d
       0.07780844 0.05637355 0.098617814 0.081735596
000090 e8 6b 3d 3e b9 8b d6 bd 81 30 30 3d 25 2a c6 3d
       0.18498194 -0.10475869 0.043015007 0.09676007
0000a0 7e ae d7 3d f7 75 f3 3c 03 e9 04 bd 19 30 81 3e
       0.105313286 0.029719336 -0.03244878 0.25232008
0000b0 76 8f ab bd 2c 82 ec 3d a2 3d 36 3e 4f 71 20 be
       -0.083769724 0.11548266 0.17796949 -0.15668224
0000c0 38 e9 c7 3d d4 8e 7b bc d3 1f dd bd e4 74 b9 bc
       0.0976128 -0.015353877 -0.107970856 -0.022638746
0000d0 f4 43 18 3d 5b 17 2e 3d 91 32 af bd 2b 7c ae 3b
       0.03717418 0.042502742 -0.08554567 0.0053248606
0000e0 d1 7d 12 bd c1 5f f9 bd 89 72 f7 3d 97 98 32 be
       -0.03576452 -0.12176467 0.12082393 -0.17441021
0000f0 1f 52 98 3d b5 f0 6f be 54 b0 f1 bd 9a ce 1b 3e
       0.07437538 -0.23431666 -0.1180121 0.15215531
000100 f6 dc 7e bd 48 fa 11 3d 9d 47 a7 3d 69 9d 92 bd
       -0.062222444 0.035639077 0.08167956 -0.0715893
000110 26 6e c0 bb 01 d5 25 3e 88 e0 ac 3d 28 23 c9 bc
       -0.0058725057 0.16194536 0.084412634 -0.024552897
000120 cf fa 28 3d 16 df be 3d c9 f6 2c bd 0d 2d 52 3d
       0.041254815 0.09319894 -0.04222754 0.051312495
000130 f0 c5 18 be b5 42 43 3e 6e 58 9f 3d 00 f3 b3 3d
       -0.14919257 0.19068415 0.077805385 0.08786583
000140 a8 10 05 3d e9 fe 78 bc e2 e9 12 3d 56 0a 6d bd
       0.032486588 -0.015197494 0.03586758 -0.057871185
000150 5d ef 05 3d dd 0f 88 bd b3 53 18 be b1 21 c0 bd
       0.032698978 -0.06643651 -0.14875679 -0.09381426
000160 b6 a6 25 bc 7e dc 3f bd 83 9d be 3a de 5b 0d be
       -0.010110548 -0.046841137 0.0014542792 -0.13804576
000170 18 ee 19 be 2c 90 98 3d 7b 77 08 3e 97 0e 7c bd
       -0.15032232 0.074493736 0.13326828 -0.06153735
000180 0e 1b fa bd 5e 73 70 3d 4e b3 df 3d e1 a5 22 3e
       -0.122121915 0.058703773 0.109228715 0.1588359
000190 07 fe 33 be 54 02 5a bd aa 69 46 3b 9a 2e 66 3e
       -0.17577372 -0.053224877 0.0030275383 0.22478715
0001a0 4e 27 70 bc b0 27 25 3e 0d ff 07 be c6 58 52 bd
       -0.0146578085 0.16128421 -0.13280888 -0.051354192
0001b0 93 98 d1 3c fb 8a 46 3e d7 87 64 3e b7 70 6d bc
       0.025585448 0.19388954 0.22317444 -0.014492205
0001c0 7d 9a 96 bd 94 79 59 bd 34 a6 94 3d fc fa ac 3d
       -0.07353685 -0.05309446 0.07258263 0.08446309
0001d0 3f c5 08 3e 89 b3 2e 3d 00 61 16 3d a7 91 bd 3d
       0.13356493 0.042651687 0.0367136 0.092562966
0001e0 a2 a4 1b 3e 42 84 d6 bc d3 55 3e bd 19 ae 51 bd
       0.15199521 -0.026186112 -0.046468567 -0.051191423
0001f0 1e 0e 20 bd ef 75 1d bd b6 ca 17 3e ca c8 9e bd
       -0.039075963 -0.03844255 0.14823422 -0.07753141
000200 a1 e2 cd 3d 34 8e 2d bd b4 b0 d1 3c b2 55 2b bc
       0.10052992 -0.042371944 0.025596954 -0.010457443
000210 59 b1 c3 3d 66 76 ca bd 27 91 5a 3d dd a9 58 3d
       0.09555311 -0.09885864 0.053361084 0.05289637
000220 d8 24 c3 bd 2f 98 be 3d 25 b9 b5 3d f5 0e 90 bd
       -0.09528512 0.093063705 0.08873204 -0.07034103
000230 69 c2 de bd 16 63 d3 bd 95 16 90 3d 3a 50 03 3e
       -0.108769245 -0.103216335 0.07035557 0.12823573
000240 70 8d a0 bd bb 5d 6a 3b 43 37 2a be 9a c5 43 3e
       -0.07839477 0.0035761434 -0.16622643 0.19118348
000250 e2 9e be 3d 03 99 62 3e e2 7e b6 3d 9f 8a b1 bd
       0.09307648 0.22128682 0.0891092 -0.08669018
000260 44 8b 03 be 90 81 a2 3d 3f 88 f4 3d b3 93 2c bc
       -0.12846094 0.07934868 0.119400494 -0.010533261
000270 7b ac 5c bd 2f 58 b8 3d b3 86 19 3e 60 68 c1 bd
       -0.053875428 0.09001195 0.1499279 -0.09443736
000280 32 39 16 be 50 2a 86 bb 6a ca 9c 3b a5 9f 01 bc
       -0.14670256 -0.0040943995 0.004784872 -0.007911597
000290 86 40 09 be b6 91 b9 bc f9 99 86 bd 69 22 82 bd
       -0.1340352 -0.022652488 -0.06572337 -0.063542195
0002a0 b0 5f 3b bd 4e f8 cf bd f9 3f 0e 3e d6 4f 2a bd
       -0.04574555 -0.10154782 0.13891591 -0.041580044
0002b0 30 92 01 bd f6 44 29 3e 86 9c 47 bc 48 f3 52 bd
       -0.031633556 0.16530213 -0.012183314 -0.051501542
0002c0 57 7e 63 3a d0 1b 89 3d 38 e0 a0 bd 00 8a 69 bd
       0.0008678189 0.06694758 -0.07855266 -0.057016373
0002d0 6c f2 b5 bc 7b cc 2a be ae a4 84 bd 30 81 04 be
       -0.022210322 -0.16679566 -0.06476723 -0.12939906
0002e0 59 36 c8 bd 9f a5 38 3d 32 bc 39 be 2b 9a 66 bd
       -0.09775991 0.045079824 -0.18138197 -0.05629937
0002f0 43 d5 c5 3d f7 55 36 be 73 04 48 3d cd 52 e8 bd
       0.09659817 -0.1780623 0.048832368 -0.11343918
000300 09 11 80 bd 8c d9 b3 3d 2a 5e e3 3c 50 e5 cd 3d
       -0.06253249 0.08781728 0.027754862 0.100535035
000310 8f 2a 53 3d 33 82 61 be af b1 4b 3d 99 5d dd bd
       0.05155426 -0.22022323 0.04973 -0.10808868
000320 62 a0 8c 3d 5e 62 2f be 01 3b e6 3d ff 9c 84 bc
       0.06866528 -0.17127368 0.11241723 -0.016188143
000330 06 ec 79 be a9 d6 1b be 0b 9b 7c 3c fb 2b f7 3d
       -0.24406442 -0.15218605 0.0154178245 0.120689355
000340 f0 73 35 bd 6b 40 55 3c 9f 93 02 3d 07 f4 05 3b
       -0.04430002 0.013015847 0.031879064 0.002043964
000350 03 6f 99 bc 6d 4c 00 be 12 85 8e 3d b2 d1 2f bd
       -0.018729692 -0.12529154 0.06958975 -0.04292459
000360 dc 9c 04 be 12 43 48 bd 16 c0 29 3d fc 13 59 bd
       -0.12950462 -0.04889209 0.041442953 -0.052997574
000370 c3 9f 96 bd 2d 5c bb 3d 25 1e 01 be b0 fd 85 3d
       -0.07354691 0.091484405 -0.12609155 0.06542528
000380 02 1b 9e be f4 89 19 be 8b 5d b1 3d 34 12 86 bd
       -0.3087998 -0.14994031 0.0866042 -0.06546441
000390 9a be 0a be d1 16 24 bd c3 35 fe 3c cb 93 dc bd
       -0.13549271 -0.040060822 0.031031495 -0.10770377
0003a0 94 b8 81 bd 35 f0 29 3e b2 72 88 3d a5 ea 03 bc
       -0.063340336 0.16595538 0.066625014 -0.008051549
0003b0 88 39 18 bc 2c cc 19 be e5 40 a8 3d 15 ff 24 3e
       -0.00929106 -0.15019292 0.08215503 0.16112931
0003c0 be 39 80 3d 82 65 4e be 60 25 9f 3d 83 4c a8 bd
       0.062610134 -0.2015591 0.077708006 -0.082177185
0003d0 d1 7b 9f 3d e0 ac f2 bd 39 10 2c 3c cb 76 0d be
       0.07787288 -0.118493795 0.010501915 -0.13814847
0003e0 71 2e cd bc 7e 40 05 3d 22 65 71 3d 39 9c 87 3c
       -0.025046559 0.032532208 0.05893434 0.016553985
0003f0 7c 08 04 be b2 16 c7 bd a5 be d9 bd 54 a2 e5 bd
       -0.12893862 -0.09721126 -0.10632066 -0.11212602

actor.2.bias f4 [128]
000000 63 39 a3 bb 17 d8 da bd f8 6c b2 be d2 51 98 bd
       -0.0049812063 -0.10685747 -0.34848762 -0.07437481
000010 7d 53 8d bd c6 d7 2e bd 09 9e 87 bd b3 d1 05 be
       -0.0690069 -0.042686246 -0.0662194 -0.13068275
000020 33 88 78 3d fc 57 cc bd e5 a0 90 3d bb b3 87 bd
       0.060676765 -0.09977719 0.07061938 -0.06626078
000030 56 d0 5c bd ee e6 b9 3b 3b fc 83 bc 84 80 a4 3d
       -0.053909622 0.005673281 -0.016111484 0.08032325
000040 4a e7 cd be 82 3c 1c 3d 3f c7 92 3d 2d 4b 0c 3d
       -0.40215522 0.038143642 0.071669094 0.03425138
000050 91 8a 65 be 2f 30 fb 38 3d 78 71 3d e5 79 bd be
       -0.2241614 0.000119775876 0.05895256 -0.3700706
000060 f6 0b 3f be 61 6e 7a be e2 67 a7 bd 6c a3 ae bd
       -0.18656906 -0.24456169 -0.08174111 -0.08527264
000070 d6 eb 19 be 4a 70 0f be 74 d7 d4 bc f3 27 4e be
       -0.1503137 -0.14007679 -0.025981642 -0.20132427
000080 d2 34 35 be 3d ce 86 3e 52 b9 19 be 6c ff 2d be
       -0.1769593 0.26329222 -0.150121 -0.16991967
000090 8e 9c 87 3b 80 d3 13 be e6 33 89 3d 84 20 90 3b
       0.004138536 -0.1443615 0.06699352 0.0043984074
0000a0 64 f2 16 be 2b 6a c3 3b 06 a1 9d be bb 0f 96 bd
       -0.14740902 0.005963584 -0.30786914 -0.07327219
0000b0 dc 20 95 bd b2 77 5c be 14 73 b5 bd e4 df 29 be
       -0.07281658 -0.21530035 -0.0885984 -0.16589314
0000c0 13 77 a4 bd 40 84 f6 3c cf 7d da bd 83 5f 92 bc
       -0.08030524 0.030092359 -0.10668527 -0.01786781
0000d0 c9 70 2f 3e 42 9a a2 3d b7 54 2e be f8 d6 ce bd
       0.17132868 0.079395786 -0.17024504 -0.10099596
0000e0 3c be eb 3c ad 06 41 bc 10 78 62 bb b3 55 9b bd
       0.028777234 -0.011781377 -0.0034556426 -0.07584705
0000f0 c4 a8 66 be e1 e3 14 3d 26 ca f0 bc 5d d5 9f 3c
       -0.22525316 0.036350135 -0.029393267 0.01951092
000100 79 d7 65 bd d4 2e 81 3d 83 b0 8b bc 0e ed 92 be
       -0.056113694 0.0630776 -0.01705194 -0.28696483
000110 a5 bb ad be 90 b5 86 bd 04 aa 76 3d a2 6d 39 be
       -0.33932224 -0.06577599 0.060220733 -0.18108228
000120 2d ec 17 bd fa ca 8d bd e0 46 2a be 73 23 f9 3c
       -0.03709047 -0.0692348 -0.16628599 0.030412411
000130 51 a6 f8 3c 18 bb 38 be db 0e 57 be d9 0a eb 3c
       0.030352743 -0.1804012 -0.2100176 0.028691696
000140 9f 7b f9 bd 1b 8d 72 be ff 96 3d be f4 73 39 3e
       -0.12181782 -0.2368664 -0.18514632 0.18110639
000150 fe f8 8b bd 3b 7b 2a 3c 96 47 4a be 11 78 03 be
       -0.06834601 0.010405357 -0.1975387 -0.1283877
000160 82 f2 03 be 49 72 90 bd 7b b2 80 be 62 dc 2f bd
       -0.12885478 -0.07053048 -0.2513617 -0.042934783
000170 c7 79 93 bd df e3 a2 3b e7 a5 2a be 63 b3 af bd
       -0.072009616 0.004971012 -0.16664849 -0.08579137
000180 b8 51 9d bc b1 25 c5 bd 3f 4f 1a be c6 8c b9 bd
       -0.019204006 -0.0962633 -0.15069292 -0.090600535
000190 f7 78 f5 bd c6 85 09 be b3 09 0e bd ff f8 65 bd
       -0.11985963 -0.13429937 -0.03467722 -0.056145664
0001a0 e0 6f 92 be b5 c4 37 bd f1 86 23 bd 07 4d 8f bd
       -0.2860098 -0.04486533 -0.039923612 -0.06997114
0001b0 c8 15 4a bd fe fa 5b bd a2 b8 a0 3d d1 40 bc 3d
       -0.04933718 -0.05370616 0.07847716 0.0919205
0001c0 45 81 30 3c 91 f4 78 3d 25 74 7b 3d 01 d3 2b 3d
       0.010773008 0.06078011 0.06139006 0.041949276
0001d0 68 66 dd bd 37 b6 36 be 22 9b a3 bd 4c 7c 1a 3d
       -0.10810548 -0.17842947 -0.079885736 0.037716195
0001e0 90 1f b0 bc 38 63 55 3d cc 04 53 bd a6 a2 58 3e
       -0.021499425 0.052096575 -0.051518247 0.21155795
0001f0 2e 13 d3 bc f5 f6 19 be a2 52 ed 3d 64 32 5b bd
       -0.025765982 -0.15035613 0.115880266 -0.053514853

actor.4.weight f4 [128, 128]
000000 89 83 0d 3c 0a 90 86 3c 7f d9 71 bd 53 30 91 3e
       0.008637317 0.016426105 -0.05904531 0.2835718
000010 cc 10 b4 bd af 94 1a 3c 4d be 29 be 31 6a 91 3d
       -0.08792266 0.009434863 -0.165765 0.071003325
000020 98 39 1a 3a e2 c0 59 be 9d 92 c4 3c dd 0b 2a 3e
       0.0005883216 -0.21264985 0.023995692 0.16606088
000030 fd fc 86 bd 8d 60 ab 3d 12 a9 9e 3d 8d a1 68 bb
       -0.065912224 0.08368025 0.07747091 -0.0035496682
000040 f4 04 ff 3d 9c 9b 8f 3b d8 05 11 be 2c d1 0a bd
       0.124521166 0.0043825638 -0.14162385 -0.033890888
000050 0b 8a 20 be 79 86 12 3d ec 3b e2 bc 5a fb 3a 3e
       -0.15677659 0.035772774 -0.027616464 0.18259946
000060 15 b7 83 3e d2 18 36 be ff e0 cb bc 7e 56 76 bd
       0.25725618 -0.17782906 -0.02488756 -0.06014108
000070 a5 00 b1 bd 7f e9 59 bd fb 83 3e be 12 61 28 bc
       -0.08642701 -0.053201195 -0.18605034 -0.01027705
000080 52 c7 45 3d 28 09 8e bd f9 63 42 3d b3 30 28 3d
       0.04828579 -0.0693534 0.047458623 0.04106207
000090 c9 71 e5 3d a7 ef 7f be a8 55 ec 3c 25 f7 58 bd
       0.112033434 -0.24993764 0.028849438 -0.05297007
0000a0 2a 1d 7b 3d 8e 46 14 bc 4c b9 a1 bd be cd 00 3d
       0.06130711 -0.009050025 -0.07896671 0.03144621
0000b0 6f 14 70 bd dd 01 24 be 1e 6f c5 3d 8a 4f 7e bd
       -0.058613237 -0.16016336 0.096403345 -0.062087573
0000c0 89 9e ea bd 99 d8 ef 3d d1 e6 5d bd dc 24 ae 3d
       -0.114560194 0.117112346 -0.0541752 0.08503124
0000d0 c9 4d 5b be c9 11 81 bd b1 11 98 bc ae 5b 17 be
       -0.21416391 -0.063022204 -0.018563123 -0.14781067
0000e0 b3 8a 23 3c dc 4f d1 3c de b1 96 be 33 ed ee bd
       0.009981799 0.025550775 -0.29432577 -0.11666336
0000f0 4d e6 08 3e 5a 7e 09 bd 3d 8b b5 bc 44 37 07 be
       0.13369103 -0.033567764 -0.02216112 -0.13204676
000100 c6 78 6b 3d 49 f9 e7 bd e8 5d 2c be 16 8b 21 be
       0.057488225 -0.11326844 -0.16832697 -0.15775713
000110 6f 42 91 3d e9 96 3b 3e a7 88 86 3c 6f e0 03 be
       0.07092749 0.18319286 0.016422583 -0.12878583
000120 74 a7 5e 3d ba 84 1a 3d ae da 6a 3d 5e f8 94 bc
       0.054358914 0.037724234 0.057337455 -0.018184837
000130 b2 10 8b be 4e 20 1d bd 7e 09 bf bd 30 9b 35 be
       -0.27161175 -0.038360886 -0.09327982 -0.1773498
000140 32 87 01 be f9 b8 75 bb ee 7e 30 3d 91 16 c5 3c
       -0.12649229 -0.0037494285 0.0430898 0.024058612
000150 f0 d5 75 3c 60 e1 4d 3e d2 3f 7a be ed 98 f0 3c
       0.01500462 0.20105505 -0.24438408 0.029369796
000160 38 d6 e8 bd fe c2 84 3d c0 22 ac bd 12 ff 88 3e
       -0.11368984 0.06482504 -0.084050655 0.26757103
000170 19 48 ca 3b 79 bc 35 bc f0 67 d8 3d 77 73 0e 3e
       0.0061731455 -0.011092299 0.105666995 0.13911234
000180 6d 94 4a be a9 5a db 3c 78 ee 5f be 52 95 86 bd
       -0.19783182 0.026776629 -0.21868312 -0.06571449
000190 43 46 93 bd 99 3b e1 3c ba 7c a0 be 89 de 7c 3d
       -0.07191136 0.027494239 -0.3134516 0.061735664
0001a0 8f 85 18 3e e4 1a c0 3d 3c 5c 11 3d 7c 2b 63 be
       0.14894699 0.09380129 0.035488352 -0.22184557
0001b0 cb 41 6c 3c 12 fa 84 bd 60 a1 64 3d 6b 9a 49 3d
       0.014419983 -0.064930096 0.05581796 0.04921953
0001c0 c5 5b 3c bd cf ff e0 bd 27 95 62 be ac ea 2e ba
       -0.045985956 -0.109862916 -0.2212721 -0.0006672542
0001d0 32 02 73 be 9f bd c8 3d 33 65 e2 3c cc 9b a2 3c
       -0.23731306 0.09801792 0.027636146 0.01984968
0001e0 99 13 c9 bd 45 ee f7 3c 2c eb 02 3c f9 de 64 bd
       -0.09818191 0.030264983 0.00799064 -0.055876706
0001f0 33 fc 42 be f5 6a 3e bd aa a3 b5 3d da d3 66 3d
       -0.19041519 -0.04648872 0.08869107 0.05635438
000200 2f 78 dc bd b4 bf 46 3d 6b 38 86 3d 0a 33 57 bd
       -0.10765111 0.048522666 0.065537296 -0.05253891
000210 1c 2b 92 3c 99 28 04 3e db 9c 66 bc 72 de 71 be
       0.017842822 0.12906112 -0.014075483 -0.23620012
000220 d4 44 f4 bc e1 c0 46 3e 7e 26 46 bd 16 20 9e 3e
       -0.029817976 0.19409515 -0.048376553 0.30883855
000230 a2 1d 06 bd c1 ea c0 3d a2 73 be bd 16 3e 44 3d
       -0.032743104 0.09419776 -0.09299399 0.047910772
000240 f4 99 dc bd 84 a2 f4 3d cd 29 f7 3d ce 78 34 be
       -0.10771552 0.1194506 0.1206852 -0.17624208
000250 5a 20 0f be 88 04 4a bd bf 8f db bd c6 bb c0 be
       -0.13977185 -0.049320728 -0.10720777 -0.3764326
000260 3b 83 6a be e0 2e 64 3d 5b 81 9e be ac 4d 85 3d
       -0.22901623 0.055708766 -0.30958065 0.06508955
000270 d1 78 98 bd bc 6a f4 bd 37 1b 67 bd 5a a4 c9 bd
       -0.07444919 -0.119344205 -0.05642244 -0.09845801
000280 aa fe 0a 3e ab 6a 00 be 2f 38 a8 bd 17 3a 8b be
       0.13573709 -0.1254069 -0.08213841 -0.27192757
000290 97 ef 73 3d f0 0b 8d bd de fd 16 3e 48 d8 d1 bd
       0.059554663 -0.068870425 0.1474528 -0.102463305
0002a0 51 8a eb 3d d2 87 db bd ba 06 09 bd 18 78 41 3e
       0.11500991 -0.10719265 -0.03345368 0.18893468
0002b0 c5 e5 a2 3d fc e1 28 3e 72 2c 79 bd 63 3e e3 3d
       0.07953981 0.16492456 -0.060833402 0.11095884
0002c0 66 b1 93 3c 0a 58 cd be 29 cc 94 3d 34 5c 14 be
       0.018028926 -0.4010623 0.07265503 -0.14488298
0002d0 88 14 21 be f7 39 e7 bd 77 68 43 bc 51 66 55 3c
       -0.15730488 -0.11290353 -0.011926762 0.013024882
0002e0 3b 23 5e be ea 4c 49 be 3e 4c 26 be d6 1d 33 bc
       -0.21693127 -0.19658247 -0.16240022 -0.010932406
0002f0 24 db 3b be b9 58 e5 bd d9 e2 94 3d a9 6f bc bc
       -0.18345314 -0.11198563 0.0726983 -0.023002462
000300 e8 c6 e1 ba e5 40 2e 3d b1 c4 eb bd a0 ac 1a 3d
       -0.0017225416 0.042542357 -0.11512125 0.037762284
000310 e3 fc 70 3d c4 cd 9a be 7b 7a b3 bd 61 35 33 be
       0.05883492 -0.30235112 -0.08763596 -0.17500831
000320 92 d2 13 be 0f 71 10 3e 2e b1 ee bd 62 65 be bd
       -0.14435795 0.14105628 -0.11654888 -0.09296681
000330 b9 b8 2b be 28 15 a5 3e 8d 58 69 be 13 d7 84 3d
       -0.16769685 0.32242703 -0.22787686 0.06486335
000340 be 71 a0 bc c4 81 31 3d ea c8 ad 3e 60 a9 90 3d
       -0.019585487 0.043336645 0.33942348 0.07063556
000350 1b 83 df be 75 07 c9 bd 23 84 0d bc ac 1f 8f bd
       -0.43654713 -0.098158754 -0.008637461 -0.06988463
000360 46 92 39 bd f0 20 33 3e e1 9b 01 bd 47 c3 06 bc
       -0.045305513 0.17493033 -0.0316428 -0.008225269
000370 13 19 fc bd d3 37 80 3d 4f 9f 82 bd 0a 6a ca 3c
       -0.1230947 0.062606476 -0.06378042 0.024708766
000380 75 b8 e5 bb 03 95 69 bd ec 54 a2 bd 14 21 a7 bd
       -0.0070105144 -0.057026874 -0.07926354 -0.08160606
000390 6e d5 cc 3d c7 f4 a8 3c 0d 69 6d bc 0b db 87 3d
       0.10001646 0.020624531 -0.014490378 0.06633576
0003a0 3d 2a 54 be 09 37 a8 bd cd 8e 9a bd 94 02 56 bc
       -0.20719238 -0.08213622 -0.07546768 -0.013062138
0003b0 27 2b 82 3c 7b 2c 03 3d 97 07 58 bc 10 e9 42 bd
       0.015889717 0.03202484 -0.013185403 -0.047585547
0003c0 88 94 e6 3d 46 0e fe 3d dc 52 2a be 7a 0e 17 3e
       0.11258799 0.12405066 -0.16633171 0.14751616
0003d0 01 5f 33 bd 23 a6 15 be 8e fa 03 bd 59 08 7d bd
       -0.043791775 -0.14614157 -0.03222137 -0.06177554
0003e0 72 3c 13 bd 73 8c 0c 3d f7 14 94 be fa 21 43 3d
       -0.035946317 0.03431363 -0.28922245 0.047639824
0003f0 5f ce 98 bd d4 4d 43 bc 74 77 b1 3d eb da 10 bd
       -0.07461237 -0.011920411 0.08665362 -0.035365026

actor.4.bias f4 [128]
000000 49 59 4d bd 56 89 26 bd 74 22 01 be df 87 8f 3e
       -0.050133977 -0.040658318 -0.12610799 0.2803335
000010 b0 f9 79 3c 00 04 e2 bd a0 8f 8a 3e 0e 2d 53 be
       0.015257284 -0.11035919 0.27062702 -0.20622656
000020 79 ae ae bb b6 c2 4a 3e c1 12 fb bd e5 e2 49 bc
       -0.0053308574 0.19800839 -0.122594364 -0.012322162
000030 df 93 fc bd 66 7c 63 bd 03 92 8b bc a7 9a a5 3d
       -0.12332892 -0.055538557 -0.017037397 0.08086138
000040 e9 9a 55 be 5b ea d4 3d 7b 45 6d bd 87 60 92 be
       -0.20859875 0.10396262 -0.05792759 -0.2858927
000050 71 b5 90 bd 71 5e 59 3e 1f c6 95 bd 51 42 64 3c
       -0.07065857 0.21227433 -0.07313179 0.013931827
000060 88 e3 5c 3d 34 42 ed bd 6b 9d 06 3d fa 72 77 be
       0.05392793 -0.11584893 0.03286497 -0.24164954
000070 47 60 88 be fe 41 31 be c0 5c 4c bc ea fe 1d 3c
       -0.26635954 -0.1731033 -0.012473285 0.009643296
000080 e7 c4 a7 bd 56 5c 4b be ba 6e 10 be be 67 45 bb
       -0.08191853 -0.19859442 -0.14104739 -0.003012165
000090 cd 98 19 3e 41 19 2d be 3b 0e 58 bd d1 9e 4b bb
       0.14999695 -0.16904165 -0.052747946 -0.0031070004
0000a0 8e 23 b9 be 10 48 4c 3d 0c fb 0e be ef d3 1a 3d
       -0.3615994 0.04987341 -0.13962954 0.037799772
0000b0 09 92 a8 3d 0d e0 93 3d 03 52 03 be 7f f2 99 bd
       0.08230979 0.07220469 -0.12824254 -0.075169556
0000c0 77 56 31 3d c4 50 5d 3e 27 87 03 3e 75 17 1f 3d
       0.04329535 0.21612841 0.12844525 0.03884073
0000d0 bc 44 1c bd 36 ea 07 be 55 7a 2b be d8 0f 7b bd
       -0.038151488 -0.13272938 -0.16745885 -0.061294407
0000e0 20 06 61 3e 95 51 08 3e ac 0c c6 3d 99 c1 38 be
       0.21974993 0.13312371 0.09670386 -0.18042602
0000f0 dd 15 94 3e 53 f2 ae 3c 43 b3 7d be aa 0d 5a be
       0.2892293 0.021355784 -0.24775414 -0.21294275
000100 1d 57 8a bd 22 3b 1c be f9 ba 03 be c2 68 e1 3e
       -0.06754897 -0.15256932 -0.12864293 0.44025236
000110 5c 58 0e be 6b c2 cd 3c f4 3c b7 be aa 22 ce 3d
       -0.13900894 0.02511712 -0.3578869 0.100652054
000120 e4 72 5f be b4 b2 d3 bd 9d a2 87 be da 9a dd 3d
       -0.21821171 -0.10336819 -0.26491252 0.10820551
000130 ff a4 8c 3c 17 da 81 bc 4f 75 8f be 91 20 53 b8
       0.01716852 -0.015851064 -0.28019187 -5.033665e-05
000140 0f 37 de bc cf 44 de 3d cc 1f 5f bd 79 70 17 be
       -0.027125863 0.10852968 -0.054473683 -0.14788999
000150 d4 43 41 bd 89 43 2a bd e3 4c d3 bd 50 cb ce bd
       -0.047183827 -0.041568313 -0.10317399 -0.100973725
000160 1f 27 0b bd 37 37 a4 3d 71 23 74 bd cd b9 03 3e
       -0.033972856 0.08018344 -0.059604112 0.12863846
000170 a6 93 26 3e 0e 37 8b be 41 77 92 3d 5e 87 b2 bd
       0.16267261 -0.2719044 0.07151652 -0.087172255
000180 cf 6f 19 3d 50 b0 29 be d4 17 84 3d 4b 2d f1 bc
       0.037460145 -0.16571164 0.06449857 -0.029440543
000190 5a 17 b0 be 62 34 b4 bd c6 dd d3 bd 82 f9 cf 3d
       -0.34392816 -0.08799054 -0.10345034 0.10155012
0001a0 3c db 07 3e cb cc 58 bd 88 87 4d be 5d ff 10 bd
       0.13267225 -0.05292968 -0.20071232 -0.035399783
0001b0 44 6b 7c be ee f9 83 3d b6 ff 72 3c 05 1a a4 3d
       -0.24650294 0.06444155 0.014831474 0.08012775
0001c0 74 02 2a be d8 37 b5 3d 05 17 59 bd a0 a9 32 be
       -0.16602498 0.08848542 -0.05300047 -0.1744752
0001d0 37 8a ac 3c 6c 83 8c be 8a 6d 91 3d 38 78 c2 3d
       0.021062 -0.27444017 0.07100971 0.09495586
0001e0 8a 35 34 3d 75 87 05 be ba bc 7c bd f2 7b 44 be
       0.04399637 -0.13039954 -0.06170342 -0.19187906
0001f0 7a b2 12 3c 40 56 0c 3d fa 20 e3 bc eb cc b2 be
       0.008953685 0.034261942 -0.027725685 -0.34921965

actor.6.weight f4 [22, 128]
000000 de 18 27 bc 06 ff 83 bd f1 e7 4a 3b 31 4a 0f 3c
       -0.0101988 -0.06445126 0.0030961002 0.008745716
000010 b5 2a e8 bb 4d 82 84 3c f6 3a 1f bc 43 28 d7 bc
       -0.007085169 0.016175414 -0.009718647 -0.026264315
000020 c5 63 b0 3c 42 78 d3 bc 36 ce 0d bd 9a df 7b bb
       0.021531949 -0.02581418 -0.034620486 -0.0038432837
000030 ba 88 38 bd 8f 06 54 ba a8 12 a0 3c fe 26 b6 bc
       -0.045052268 -0.00080881355 0.019540146 -0.02223539
000040 61 e1 f9 3b b1 70 7f bc aa fb b8 bc f4 a7 2e 3c
       0.007625744 -0.015590833 -0.02258094 0.01066016
000050 e5 af 39 3c a1 d5 b0 3b cf 45 13 bd 12 af aa 3d
       0.01133344 0.0053965603 -0.035955247 0.08334173
000060 e4 81 a4 bc 04 dd 02 3d f5 59 76 bd 2b 54 2b 3d
       -0.020081468 0.03194906 -0.060144383 0.041828316
000070 a4 ce c5 bb df 7f dc bc 49 d4 6d 3d ce bc 9b bc
       -0.0060365964 -0.026916442 0.05806378 -0.019010928
000080 82 5c d0 3d 1f dc 7b 3d 38 49 d0 bc b5 48 5e 3d
       0.101738945 0.06148922 -0.025425538 0.054268558
000090 89 9b 79 3d 5d da 0a bd 7b d9 25 3d 3b 5f 69 bd
       0.060939346 -0.033899654 0.04049061 -0.056975584
0000a0 09 a4 d5 bc 93 10 ac 3d 12 9c 2d bd 98 2e 99 3a
       -0.026079195 0.08401599 -0.04238517 0.001168686
0000b0 7f 86 43 3d 5b 01 28 3d c4 42 63 3d ea c0 78 3a
       0.047735687 0.041016918 0.055483595 0.00094891957
0000c0 49 a2 1f bd 07 58 10 3e 53 9b 3c 3d ed 3f 98 ba
       -0.038973127 0.1409608 0.046046566 -0.0011615731
0000d0 69 73 12 3d fc 5f da bc e0 5a 7b 3c 83 80 a5 bd
       0.035754595 -0.026657097 0.0153414905 -0.08081152
0000e0 fc 6d 07 bc 47 44 8e 3c 54 39 53 3c f2 c3 54 3d
       -0.008265968 0.017366542 0.012892086 0.05194468
0000f0 e4 91 1d 3c 18 08 70 3c 0e cc 98 3a ab db f7 bc
       0.009617303 0.014650367 0.0011657493 -0.030256113
000100 cd 0e 34 bc 19 4a 64 3d f4 a6 16 bd 3f 38 02 3e
       -0.010989857 0.055734728 -0.036780313 0.12716769
000110 84 97 f1 3d 46 47 46 3d b3 8e 0d b9 76 30 09 3a
       0.117964774 0.048407815 -0.00013499967 0.00052333565
000120 9a ff 95 3c e8 4a 84 bc 51 80 37 bb 5b 9f 23 bd
       0.018310357 -0.016149 -0.0028000067 -0.039946895
000130 ab e5 5e bd d5 74 ad bc e3 49 c9 bd 61 3a f5 bc
       -0.054418247 -0.021173874 -0.09828546 -0.029935064
000140 a9 2f 42 bc 7c 7c 82 3d c1 6a da bd b1 9b 9f bd
       -0.011852183 0.063714 -0.10664893 -0.07793368
000150 0c f6 0e bc 05 1e 77 3c 53 6e 5e bc 93 03 60 bd
       -0.008725654 0.015082841 -0.013576108 -0.05469091
000160 47 a3 ba 3c ac 0d 75 bd bd 7c e1 3d 15 ee 34 3c
       0.022782935 -0.05982749 0.1101012 0.011043091
000170 6a b9 18 bd f3 c6 17 3d f2 8b d6 3c d4 0c 9f bd
       -0.0372862 0.037054967 0.026189778 -0.07766119
000180 b1 75 0c 3d 3e 8e 94 3d 66 de a2 bb bb 63 83 bd
       0.034291927 0.07253693 -0.0049703596 -0.064155065
000190 f9 44 38 bc e7 95 ba bc 3b b0 67 bd c1 9c 13 bd
       -0.011246913 -0.022776557 -0.05656455 -0.036038164
0001a0 fc ab 34 be 8d ae 65 bd f3 f9 16 3c ee 42 52 3d
       -0.17643732 -0.056074668 0.009214866 0.05133336
0001b0 10 b6 67 3c eb f3 68 bd 39 67 8c 3d a3 87 1b be
       0.014142528 -0.056873243 0.06855626 -0.1518846
0001c0 d6 92 c7 bc 6b e2 aa 3b b6 3a 74 3c 40 7e 48 3c
       -0.024362009 0.0052149794 0.014906576 0.012237132
0001d0 03 9d 4d 3d d6 4c 0b 3d ce da 03 bd b5 cb 10 3c
       0.050198566 0.034008823 -0.03219109 0.00883763
0001e0 48 10 3e bc 10 55 de 3d 75 e3 85 bc 0a da 05 bc
       -0.011600561 0.10856068 -0.016343812 -0.00816966
0001f0 dd be f5 bd 02 1a 40 39 68 3c 4e bd e1 5a ab 3c
       -0.11999295 0.00018320236 -0.050350577 0.020917358
000200 97 1e 35 bd 88 87 6a 3d 5d a3 3a 3d d8 58 ee 3d
       -0.044218626 0.05725816 0.04556595 0.11638039
000210 b3 8b 28 bc a4 77 03 3e 12 aa 7d bb 10 44 05 bd
       -0.010287213 0.12838608 -0.0038706106 -0.032535613
000220 2a 7e 0f 3d 48 52 74 3d de 68 1c bd cc ed 0c bd
       0.03503243 0.059648782 -0.038185947 -0.03440647
000230 75 b2 86 3d 1b 4f 58 bd 6e 98 cd 3b 3a a5 8a bd
       0.06577007 -0.052809816 0.0062742746 -0.06769796
000240 e5 91 59 bc 70 7a 8d 3c 19 db 42 3c 1e 20 79 bd
       -0.013279413 0.017270297 0.011893057 -0.060821645
000250 51 60 96 bd e7 13 3c 3d 2b cd 5b bb 6c 20 3f bd
       -0.0734259 0.045917418 -0.0033539038 -0.04666178
000260 94 a9 0a be c7 a7 35 be f0 b3 6b 3d 33 18 b0 3d
       -0.13541251 -0.17739783 0.05754465 0.08598366
000270 d5 c4 ad bd 69 c7 5f 3d 95 00 1e 3d 70 c3 e6 3c
       -0.08484808 0.05463353 0.038574774 0.028169364
000280 23 1d 21 3c d7 4a 8e 3d 2a 48 c7 bc bc c5 96 bc
       0.009833607 0.06947868 -0.024326403 -0.018404834
000290 8b c3 9d bd 30 d2 d2 bd 14 a3 91 bc 3d 42 07 3d
       -0.077033125 -0.10293996 -0.017777957 0.033022154
0002a0 16 f0 f1 3c 9e 32 4b 3d a8 34 ea bc 30 bb e5 3d
       0.029533427 0.04960882 -0.028589562 0.11217344
0002b0 92 2c aa 3c 08 f3 08 3c f6 4a a5 bd 7a ea 31 3c
       0.020773206 0.008358724 -0.08070938 0.010859126
0002c0 7b 39 26 3d 31 d8 98 bd 92 1c 1b bc fd 33 25 bd
       0.04058216 -0.0746311 -0.009467261 -0.040332783
0002d0 8b ce 83 3d 16 76 9c 3c 44 09 e7 3b 1f 2d 8b bd
       0.06435879 0.019099277 0.007050665 -0.067957155
0002e0 68 0b ac 3d 58 77 ce bc 64 1e 39 3d 07 c3 fb 3b
       0.08400613 -0.025203392 0.045195 0.007683161
0002f0 55 1b f0 3d 65 95 96 3c 8e 39 a9 bd 25 fc 0a bd
       0.11723963 0.018381784 -0.08262931 -0.03393187
000300 d0 a8 16 bc 7e 7f c7 bc b7 05 a3 3d e9 25 0f be
       -0.0091955215 -0.024352785 0.079600744 -0.13979305
000310 4a cb da bc fe 07 0b 3e 1d 12 c4 bd eb 3d f0 bb
       -0.026708264 0.13577268 -0.09573767 -0.0073316
000320 6b 75 a4 bd 94 b9 dc bc 4f a8 36 3d e6 c3 15 bd
       -0.08030208 -0.02694396 0.044594105 -0.036563776
000330 1a 45 12 be 15 e9 3f bd af 54 16 3e ab 73 be bd
       -0.14284173 -0.046853144 0.14680742 -0.09299406
000340 aa f6 e9 bc de 29 c6 3d fd d0 db bd 13 21 b9 3b
       -0.028560001 0.09675954 -0.10733221 0.0056496947
000350 ad 62 0e 3c 16 19 9e bd 02 e4 47 bc e3 98 63 bc
       0.008690518 -0.077196285 -0.012200357 -0.0138914315
000360 b9 4d 2e 3d 70 ee 91 bd 05 08 54 3d 7e 71 6b 3d
       0.04255459 -0.071255565 0.05176546 0.05748128
000370 51 34 50 3e 6a 8c b5 3c bf 35 ab ba e6 dd 62 3c
       0.20332457 0.022161681 -0.0013062282 0.01384685
000380 60 cb fc 3a 8e 8e 0a 3d ff 11 9d bd 74 25 3b 3c
       0.0019286685 0.033827357 -0.07669448 0.011422504
000390 85 16 6b bc e6 06 7f bd c0 98 8c bd e3 5d 41 3e
       -0.014348631 -0.06226244 -0.06865072 0.18883471
0003a0 9a 6f 0e bc 3b 6d 97 3d e3 22 93 bc 7f 98 8d 3d
       -0.0086936 0.07393881 -0.017960971 0.06913852
0003b0 15 a7 bd 3c db f8 3a bb 08 f9 5d 3e fd 8a 7d be
       0.02315096 -0.0028529677 0.21677029 -0.24760051
0003c0 02 5e ec bd b0 0c 62 bd 7a 2d 59 bd 43 e6 8c bb
       -0.11541368 -0.05518788 -0.053021885 -0.0042999103
0003d0 76 ca 13 bd 27 64 37 3d 88 6c 45 3c 37 d7 2a bd
       -0.036081754 0.044773247 0.012049802 -0.04170915
0003e0 0c dc 35 3d ce b5 9e 3c 07 5a 29 bd fe 7f f8 3c
       0.044399306 0.0193738 -0.041345622 0.030334469
0003f0 68 03 f7 bc 40 e3 92 3d c4 da a8 bc f9 e8 4b ba
       -0.030152991 0.07172251 -0.020612128 -0.0007778551

actor.6.bias f4 [22]
000000 72 51 9a ba 9e 48 40 3e e9 91 18 3d be 75 43 bf
       -0.001177354 0.18777701 0.037248526 -0.76351535
000010 14 bb aa 3c cd ac 1d 3d 33 df 46 be 73 ed 12 bd
       0.020841159 0.038494874 -0.19421081 -0.03587098
000020 02 cf 46 3f d4 5d 09 3d 10 28 e3 3d c9 93 d5 3d
       0.7765962 0.033536747 0.11091626 0.104285784
000030 05 e2 01 3e 02 ad 21 be b0 62 3c 3e ef f5 30 be
       0.12683876 -0.15788653 0.18397021 -0.17281316
000040 dc 6e 1c be b4 a7 c2 bd c5 a1 4e bd 70 89 e8 bd
       -0.15276664 -0.09504643 -0.050447244 -0.11354339
000050 45 1f 14 3e d7 5b 39 3e
       0.14465053 0.1810144
