checkpoints/policy_baseline.onnx (onnx, 972039 bytes, 14 tensors)

actor.0.weight f4 [256, 80]
-0.12907021 -0.43953434 -0.06368325 0.10404392 0.15260996 -0.11958222 0.3548435 1.0496966
0.05569192 -0.3972226 -0.616702 -0.28266117 -0.21523963 -0.18463159 0.13620286 -0.27019754
-0.19754566 0.48890352 -0.1273101 0.12979029 0.78011745 -0.020189323 -0.065693274 0.13171329
0.05803549 0.009752702 -0.0028825707 -0.005119371 0.116860025 0.006852752 0.032144047 0.056718204
-0.007970768 -0.029695062 0.0898751 -0.03879137 -0.06134274 -0.13830642 0.022497589 0.13722149
-0.042647194 -0.12322404 0.117979534 0.12243401 0.1134445 0.049106337 0.246583 -0.08028264
0.079341084 0.067086786 -0.10252088 -0.103584625 -0.0163576 -0.069898956 -0.08824871 -0.06039941
-0.07903288 -0.03458987 -0.11570795 0.082449794 -0.008841379 -0.03591212 -0.087548986 0.11057999
0.0837343 0.11047673 -0.011661216 0.04645821 -0.051095475 0.053041585 0.016279912 0.023132527
0.026982186 0.03306074 0.098379046 -0.03576713 -0.024160938 -0.056895606 -0.014273977 -0.10356666
-0.3963941 -0.6587312 0.13602015 -0.06970731 -0.25998628 -0.02096049 -0.59961194 1.1435602
0.13518263 -0.16627653 -0.06598613 -0.23941395 0.30750293 -0.03448002 -0.0069454247 -0.30326706
-0.8704955 -0.17142849 0.0421971 0.43419802 0.41821685 -0.022409054 -0.02481881 -0.13480265
-0.06037647 -0.08896837 -0.014910035 -0.026053805 -0.09536963 -0.023040507 -0.064426705 0.0010464442
0.0029934186 -0.1432759 0.06680478 -0.023165865 0.045107186 -0.118364416 -0.08790082 0.048342787
0.060951352 0.020511737 -0.1389784 -0.14517866 0.031725224 -0.21206218 0.15114832 -0.37624648
0.050708298 -0.031902637 0.13886042 -0.08829662 0.13108715 -0.070060425 -0.030766139 0.05176991
0.069418155 -0.0392996 -0.055151228 -0.14395104 -0.102824956 -0.058802962 0.02287033 -0.03805615
-0.09946148 0.1947474 -0.029480578 0.032635856 0.11371057 -0.0525874 0.0695166 0.010230096
-0.059616312 -0.107761696 -0.01972932 -0.00013739135 -0.04354259 -0.037677463 0.05658518 -0.07981361
0.144906 -0.39996842 -0.000263424 0.2137468 0.11007621 -0.009986245 0.6809975 -0.74698484
0.24109477 0.27817237 0.16299331 -0.7102781 -0.6603545 -0.23777625 -0.23022924 0.64456016
0.13714708 0.12296668 -0.17197788 -0.49967992 -0.64882064 0.097556874 0.05504673 0.006450015
-0.084423795 0.04077727 0.011655039 -0.11868669 -0.042921975 -0.03401631 -0.013683145 -0.023551218
-0.00015906568 0.085828125 0.057299696 -0.049734823 -0.04437895 -0.15081787 0.02802025 0.12312959
0.0027568121 0.022291018 0.062410787 -0.05384381 -0.06035926 0.122692525 -0.056922033 0.17355788
0.0054173307 -0.03196061 0.059677552 -0.027312573 0.082307704 -0.10154848 0.04249411 0.0067046136
-0.042541984 0.030685304 0.021635273 0.08130819 -0.09443765 -0.07948848 0.003524373 0.091481656
0.05560833 -0.072549075 0.035441104 -0.15314764 0.1273058 -0.011711878 0.022524813 0.09712323
-0.010167825 -0.15871605 -0.16237113 0.017078515 0.030567503 -0.05406359 0.011679172 0.0036955187
0.4108862 0.0876217 0.3591402 -0.4852983 -0.21013056 -0.17050208 -0.05774372 1.0422612
0.24482705 -0.13590758 0.29866332 0.086098805 0.29807705 -0.55712765 -0.3363705 -0.9136633
00000000: fb2a 04be a50a e1be 5d6c 82bd fb14 d53d
00000010: c945 1c3e 86e7 f4bd 0cae b53e 755c 863f
00000020: 361d 643d c360 cbbe 2fe0 1dbf f7b8 90be
00000030: c767 5cbe 1010 3dbe c378 0b3e 5557 8abe
00000040: 6949 4abe 9051 fa3e 945d 02be bfe7 043e
00000050: c7b5 473f 1464 a5bc 328a 86bd d9df 063e
00000060: 9fb6 6d3d ccc9 1f3c 83e9 3cbb 66c0 a7bb
00000070: 4f54 ef3d 0d8d e03b 7aa9 033d 5951 683d
00000080: d397 02bc 0f43 f3bc 7010 b83d b3e3 1ebd
00000090: 8642 7bbd 33a0 0dbe dd4c b83c ca83 0c3e
000000a0: d3ae 2ebd e35c fcbd 419f f13d afbe fa3d
000000b0: 9755 e83d ba23 493d 4180 7c3e 3a6b a4bd
000000c0: 947d a23d cc64 893d 78f6 d1bd 2d24 d4bd
000000d0: 6000 86bc 2f27 8fbd bdbb b4bd 5f65 77bd
000000e0: fedb a1bd 1cae 0dbd 4af8 ecbd 70db a83d
000000f0: 6edb 10bc 9618 13bd e24c b3bd c377 e23d
00000100: e47c ab3d a041 e23d af0e 3fbc f74a 3e3d
00000110: 7d49 51bd 2242 593d 735d 853c 6d80 bd3c
00000120: bf09 dd3c b36a 073d f47a c93d 8e80 12bd
00000130: 29ed c5bc 5e0b 69bd 66dd 69bc c21a d4bd
00000140: 2bf4 cabe 9ca2 28bf de48 0b3e b5c2 8ebd
00000150: ec1c 85be 55b5 abbc 2b80 19bf 2e60 923f
00000160: 516d 0a3e 6544 2abe bc23 87bd ee28 75be
00000170: 0671 9d3e ec3a 0dbd 7296 e3bb d245 9bbe
00000180: cbd8 5ebf f38a 2fbe ded6 2c3d 344f de3e
00000190: 8520 d63e 3193 b7bc d150 cbbc b509 0abe
000001a0: 514d 77bd 0c35 b6bd 3849 74bc ca6e d5bc
000001b0: 2751 c3bd 72bf bcbc 26f2 83bd d728 893a
000001c0: 3b2d 443b ebb6 12be f2d0 883d 57c6 bdbc
000001d0: 50c2 383d 0b69 f2bd 5805 b4bd 1603 463d
000001e0: 20a8 793d 3b08 a83c 5b50 0ebe b7a9 14be
000001f0: 4ff2 013d d426 59be a0c6 1a3e 61a3 c0be
00000200: 81b3 4f3d 57ac 02bd 6d31 0e3e dcd4 b4bd
00000210: b63b 063e d77b 8fbd 4509 fcbc af0c 543d
00000220: 1b2b 8e3d 9ef8 20bd 41e6 61bd e767 13be
00000230: e495 d2bd 60db 70bd 8f5a bb3c c4e0 1bbd
00000240: 76b2 cbbd dd6b 473e 4181 f1bc 2dad 053d
00000250: 16e1 e83d e365 57bd b85e 8e3d 229c 273c
00000260: 3c30 74bd 2ab2 dcbd 629f a1bc b610 10b9
00000270: b759 32bd af53 1abd ddc5 673d 5175 a3bd
00000280: 3d62 143e a9c8 ccbe 2c1c 8ab9 71e0 5a3e
00000290: a36f e13d 599d 23bc da55 2e3f 663a 3fbf
000002a0: 8ce1 763e 9c6c 8e3e b8e7 263e c9d4 35bf
000002b0: fe0c 29bf 9e7b 73be 37c1 6bbe e501 253f
000002c0: 4970 0c3e f4d5 fb3d f81a 30be 0cd6 ffbe
000002d0: 1c19 26bf e6cb c73d ae78 613d a65a d33b
000002e0: 62e6 acbd 1106 273d c7f4 3e3c 0212 f3bd
000002f0: f4ce 2fbd b054 0bbd 452f 60bc 7cee c0bc
00000300: deca 26b9 a8c6 af3d 16b3 6a3d beb6 4bbd
00000310: b4c6 35bd 0070 1abe b98a e53c 5e2b fc3d
00000320: a2ab 343b a79b b63c 74a2 7f3d 548b 5cbd
00000330: 453b 77bd 3846 fb3d 1427 69bd 28b9 313e
00000340: dd83 b13b 21e9 02bd 7370 743d 9ebe dfbc
00000350: f190 a83d a6f8 cfbd 4e0e 2e3d 60b2 db3b
00000360: 8140 2ebd bf5f fb3c 753c b13c e984 a63d
00000370: 8768 c1bd dbca a2bd 2bf9 663b bc5a bb3d
00000380: 8fc5 633d 9c94 94bd b12a 113d bcd2 1cbe
00000390: 745c 023e 2de3 3fbc f585 b83c 8be8 c63d
000003a0: f396 26bc 7686 22be 9e44 26be 3ee8 8b3c
000003b0: b368 fa3c c871 5dbd ff59 3f3c 8430 723b
000003c0: ad5f d23e 0173 b33d 39e1 b73e 0579 f8be
000003d0: 772c 57be 1998 2ebe ae84 6cbd d168 853f
000003e0: f1b3 7a3e 5b2b 0bbe 66ea 983e 9254 b03d
000003f0: 8e9d 983e eb9f 0ebf c138 acbe d7e5 69bf

actor.0.bias f4 [256]
0.075772926 -0.12693554 -0.008662177 0.038261283 0.15252148 -0.14402771 0.07665671 0.030360019
-0.087120555 0.0050919233 -0.030826155 -0.09811054 0.05085761 0.046275873 0.056557707 0.09506292
-0.016467312 0.051129065 -0.15296091 -0.03077451 -0.099795535 -0.0021876418 -0.014371496 -0.027282098
0.016974697 0.049459927 0.008813139 0.018706296 0.121487334 0.061639156 0.06848714 0.023581123
-0.20885256 0.032437153 -0.11004251 0.013826869 -0.010494033 -0.08162907 -0.05391165 0.07565415
-0.1275481 0.091356 0.08014036 -0.039627187 0.07168773 -0.05804648 -0.12738857 0.04090334
0.054563552 -0.13323998 -0.1323322 0.005668029 -0.06963277 0.04929538 0.10503622 -0.017536355
-0.04461452 -0.19754045 -0.01563814 -0.013223437 -0.09162553 -0.011646715 -0.17809524 -0.09835055
0.14164443 -0.11955245 -0.1901171 0.011299321 0.009388522 0.020593684 0.032661144 -0.04812255
0.013470684 -0.03971543 -0.07493241 -0.12295644 -0.050598882 -0.16305426 -0.17564468 -0.030351127
-0.07809053 -0.14222722 -0.09940663 0.10828604 -0.032647826 0.05987791 -0.0075479243 -0.05523784
0.00019076827 -0.0786404 0.12894455 -0.07661679 -0.08249785 -0.068788216 -0.034009676 -0.0971306
-0.18050039 0.00694334 -0.15186813 0.17305678 -0.0056495694 -0.04208463 0.13828383 -0.029285038
-0.112249106 -0.00308869 -0.0066738524 -0.0009258074 0.041235473 -0.12068649 -0.07464438 0.13270122
0.018458305 0.007562917 -0.07960707 0.0475951 -0.050824214 -0.07445028 0.05360563 0.077496625
-0.056052282 -0.108180515 -0.067135274 -0.14359425 0.050221946 0.061405275 -0.009511657 0.04185744
0.09350758 -0.17106727 -0.013089705 0.016760882 0.109725885 6.438521e-05 -0.08222901 0.13653375
-0.109615736 -0.13629591 -0.081318446 0.018316317 0.031596433 -0.10904595 0.071028456 -0.041484736
-0.05194758 -0.07831286 -0.11883107 -0.0840065 -0.11620719 0.0117396545 -0.030750034 -0.03398488
-0.042486224 -0.14808418 -0.04547921 0.04671757 0.004322488 0.010981281 -0.08001375 0.04108547
-0.061402477 0.021704447 -0.022642976 0.04285092 -0.17102806 -0.035920557 0.04289177 0.13195832
-0.1464833 -0.13834159 -0.17270835 0.055727072 -0.051569503 0.03176444 0.0020346749 0.018674217
-0.020679522 -0.12386423 -0.14334023 -0.17637742 0.09828186 0.1204545 -0.08074648 0.06744019
0.015743067 -0.058015954 -0.17052826 -0.002449806 -0.087648004 -0.07601888 0.007971965 -0.006727635
0.06938134 -0.17470822 -0.20543535 -0.072284795 -0.04920026 -0.0963714 0.0577022 0.041821696
-0.15012574 0.16497006 0.09315754 -0.14034948 0.025426665 -0.18320979 -0.14272468 0.015256543
-0.047745362 -0.20014475 -0.17295791 0.05850829 0.008678474 0.025942415 0.0072147106 -0.10432818
-0.05445192 0.03600724 0.16950373 -0.05516976 -0.0025037548 0.020371977 -0.027696317 0.03731293
-0.028740752 -0.016507814 0.005390339 -0.037014615 -0.16028266 0.15603025 -0.032545798 -0.05845722
-0.048006773 -0.049395904 -0.06699696 0.041228574 -0.15542227 -0.08140434 0.05829962 0.07456614
-0.057814892 -0.12711062 0.040159337 -0.026638104 -0.057751916 -0.14180613 -0.19695674 -0.11631582
-0.09692931 -0.15190825 -0.08789184 -0.051579528 -0.091443606 0.17093527 0.015361798 -0.07872471
00000000: d62e 9b3d 64fb 01be ceeb 0dbc ddb7 1c3d
00000010: 972e 1c3e 007c 13be 31fe 9c3d 93b5 f83c
00000020: 436c b2bd 26da a63b 2287 fcbc 2eee c8bd
00000030: 1250 503d c58b 3d3d 0ea9 673d 59b0 c23d
00000040: 75e6 86bc b66c 513d c9a1 1cbe d31a fcbc
00000050: 9a61 ccbd 8a5e 0fbb 6c76 6bbc b57e dfbc
00000060: 850e 8b3c 7e96 4a3d fc64 103c f23d 993c
00000070: 5ace f83d 5779 7c3d fc42 8c3d 332d c13c
00000080: 72dd 55be d2dc 043d f85d e1bd 188a 623c
00000090: 2aef 2bbc 242d a7bd 76d2 5cbd 90f0 9a3d
000000a0: f89b 02be db18 bb3d a120 a43d 1e50 22bd
000000b0: 04d1 923d 25c2 6dbd 2672 02be 438a 273d
000000c0: 087e 5f3d 1070 08be 1882 07be e0ba b93b
000000d0: a09b 8ebd f4e9 493d 3b1d d73d 67a8 8fbc
000000e0: b7bd 36bd 0b48 4abe 8e1b 80bc 1da7 58bc
000000f0: 2aa6 bbbd ddd1 3ebc 995e 36be 036c c9bd
00000100: 3d0b 113e ead7 f4bd 0fae 42be ca20 393c
00000110: 51d2 193c 16b4 a83c b1c7 053d 271c 45bd
00000120: 25b4 5c3c a6ac 22bd 2a76 99bd 96d0 fbbd
00000130: c640 4fbd b2f7 26be 33dc 33be eda2 f8bc
00000140: eeed 9fbd 03a4 11be b495 cbbd 12c5 dd3d
00000150: bab9 05bd 8a42 753d 9454 f7bb 1341 62bd
00000160: f808 4839 380e a1bd 0a0a 043e 43e9 9cbd
00000170: a2f4 a8bd d6e0 8cbd bb4d 0bbd 68ec c6bd
00000180: 18d5 38be f584 e33b 5283 1bbe cc35 313e
00000190: 0620 b9bb ef60 2cbd 479a 0d3e 2de7 efbc
000001a0: dce2 e5bd 9f6b 4abb 55b0 dabb e2b1 72ba
000001b0: 87e6 283d 7a2a f7bd 27df 98bd d4e2 073e
000001c0: df35 973c 59d2 f73b 0809 a3bd 14f3 423d
000001d0: 0d2d 50bd 6379 98bd 9491 5b3d 8db6 9e3d
000001e0: 1497 65bd bf8d ddbd 387e 89bd 5f0a 13be
000001f0: 87b5 4d3d 1984 7b3d c8d6 1bbc b572 2b3d
00000200: e780 bf3d 422c 2fbe 3476 56bc 1e4e 893c
00000210: f7b7 e03d 8c06 8738 af67 a8bd 81cf 0b3e
00000220: 377e e0bd 2891 0bbe 498a a6bd 1a0c 963c
00000230: 436b 013d 7c53 dfbd 5e77 913d e6eb 29bd
00000240: fcc6 54bd 7e62 a0bd b45d f3bd 9a0b acbd
00000250: 09fe edbd ae57 403c 7fe7 fbbc bb33 0bbd
00000260: 0906 2ebd 61a3 17be 6848 3abd ec5a 3f3d
00000270: a8a3 8d3b d5ea 333c 40de a3bd 3d49 283d
00000280: 2a81 7bbd 86cd b13c c37d b9bc 7284 2f3d
00000290: fb21 2fbe 6f21 13bd 48af 2f3d 1520 073e
000002a0: b8ff 15be 6ba9 0dbe 75da 30be 1242 643d
000002b0: 8b3a 53bd 6e1b 023d 2e58 053b acfa 983c
000002c0: 1a68 a9bc 88ac fdbd c8c7 12be 489c 34be
000002d0: 0048 c93d d9b0 f63d 695e a5bd 151e 8a3d
000002e0: 9bf7 803c 23a2 6dbd f69e 2ebe ed8c 20bb
000002f0: cc80 b3bd c9af 9bbd d89c 023c 7e73 dcbb
00000300: ce17 8e3d b6e6 32be a55d 52be 0d0a 94bd
00000310: 3686 49bd 5e5e c5bd 2459 6c3d 3a4d 2b3d
00000320: 90ba 19be e9ed 283e 61c9 be3d c6b7 0fbe
00000330: 954b d03c 599b 3bbe 6b26 12be 94f6 793c
00000340: a490 43bd bff2 4cbe e11b 31be 64a6 6f3d
00000350: 2930 0e3c 3085 d43c 6169 ec3b 03aa d5bd
00000360: fa08 5fbd 547c 133d 6392 2d3e b0f9 61bd
00000370: 0916 24bb 22e3 a63c 63e3 e2bc 71d5 183d
00000380: ba71 ebbc 653b 87bc 71a1 b03b a39c 17bd
00000390: 2321 24be 65c6 1f3e be4e 05bd d770 6fbd
000003a0: c0a2 44bd 5c53 4abd b435 89bd 4bdf 283d
000003b0: 0427 1fbe 52b7 a6bd 95cb 6e3d 22b6 983d
000003c0: 4fcf 6cbd 4929 02be 1e7e 243d 2738 dabc
000003d0: 468d 6cbd a035 11be 07af 49be fd36 eebd
000003e0: e082 c6bd d68d 1bbe a300 b4bd 0e45 53bd
000003f0: c946 bbbd a809 2f3e 0db0 7b3c 6c3a a1bd

actor.2.weight f4 [256, 256]
0.103124276 0.0311784 -0.0350457 -0.078159735 0.08697356 0.08993817 -0.027434224 0.008911087
0.0031184992 0.006952308 0.11115675 -0.011924098 -0.053882696 -0.017817426 -0.0231195 -0.0067508086
-0.04634592 -0.03841067 -0.062436227 -0.032485675 -0.06890384 0.062003307 -0.053481475 0.041882515
-0.0058600972 0.054367058 -0.039215755 0.0018297072 -0.009383417 -0.1118542 0.097485736 0.102058984
-0.03556292 -0.17009474 -0.120013736 -0.05357423 0.0638427 0.028534897 0.082863666 0.0593607
-0.017075274 0.078081034 0.0007903076 -0.13605908 -0.016049443 0.13595656 0.0161157 -0.021729635
-0.06402662 -0.049263097 0.08032314 0.068396725 0.04431127 0.020682478 -0.07206323 0.017877497
0.026624825 -0.047171135 0.07950897 -0.028933728 0.10505268 0.13546991 -0.03011412 -0.076107614
-0.039071664 -0.031940293 0.0103886025 -0.04471509 0.029400194 0.095709704 0.11134058 0.017118767
-0.0757065 0.0027821318 -0.043858755 0.0070982073 0.07706107 -0.067939594 0.027725331 -0.09767426
-0.043072395 -0.03839667 -0.11468173 -0.0062257783 0.075059 0.011514379 0.036118943 0.011207821
-0.090920135 -0.056564264 -0.1451805 -0.022328803 -0.033892278 -0.020501249 0.01157 -0.010048493
0.018398542 0.00874061 0.029509174 0.031891745 0.09486261 0.022962153 -0.03815412 0.044303887
0.033138696 -0.015907079 0.16416915 -0.00818388 -0.15479982 -0.03272531 -0.04164167 0.009385349
-0.035226967 0.07226454 -0.077539444 0.024838815 0.081988186 0.007968451 0.025320752 -0.051203072
-0.072773024 0.0051123966 -0.07616682 -0.027643586 -0.16874635 -0.03744212 -0.008030172 0.023869984
0.12686963 -0.048894513 0.007000754 -0.03438842 0.017327372 -0.029349966 0.11219857 0.28929174
0.019741895 0.026346263 0.06847388 -0.038887605 0.0015932902 0.041135304 0.011816721 0.0073451796
0.0005989767 -0.0060184863 0.0032950155 0.06287332 0.074877046 -0.020426251 0.046782073 0.01686095
-0.06924678 -0.11749589 -0.017747916 -0.10559425 0.083148584 -0.06739901 0.16310766 -0.07134618
-0.17962526 -0.061344054 0.19713932 -0.10288264 -0.055985365 -0.12441899 0.0069204257 0.067020506
-0.005935044 0.047152262 0.0570855 0.06930165 0.08960937 0.036950864 -0.015649572 -0.009348878
-0.07916612 -0.03340486 0.11635439 -0.032277044 0.043809716 -0.010480213 0.060599703 0.036610957
-0.02510728 -0.0021714922 0.06883239 -0.017286735 -0.10627432 0.018435499 -0.0011423272 -0.10762729
-0.061385494 0.08076755 0.059699107 0.003123251 -0.023320412 0.052821763 0.060666747 -0.09530019
0.06261801 -0.09183918 -0.017948344 0.048465993 0.068646334 -0.065317884 0.1361633 -0.04780724
0.05001344 -0.00041513005 0.06452535 0.05057113 0.104726374 -0.050138142 -0.04573975 0.046378024
0.026510276 0.11613742 -0.026994502 -0.049663443 0.0978048 -0.0011466921 0.044721093 0.0570222
-0.013376423 -0.11032441 -0.083822064 0.08925435 0.106357716 -0.15494782 0.036877353 0.03651506
0.08169725 0.08000237 0.028941963 0.012108399 0.04411523 0.116827376 0.076389395 -0.0040694796
-0.016440753 -0.041093674 -0.024123864 0.046366584 0.0108225765 -0.025656814 0.13295473 -0.05132806
-0.27964103 -0.22766331 0.09815213 -0.1847049 -0.0032917885 -0.114454985 -0.0059203645 -0.10867223
00000000: d232 d33d d869 ff3c 148c 0fbd 3612 a0bd
00000010: 321f b23d 8131 b83d bdbd e0bc cfff 113c
00000020: bc5f 4c3b 30d0 e33b 26a6 e33d 4b5d 43bc
00000030: 1ab4 5cbd daf5 91bc 1b65 bdbc e335 ddbb
00000040: 38d5 3dbd 8254 1dbd 21bd 7fbd b30f 05bd
00000050: 751d 8dbd 2ef7 7d3d 640f 5bbd 008d 2b3d
00000060: 0f06 c0bb feaf 5e3d b3a0 20bd c9d2 ef3a
00000070: e7bc 19bc d113 e5bd 9aa6 c73d 4d04 d13d
00000080: 6daa 11bd 512d 2ebe c3c9 f5bd a770 5bbd
00000090: f6bf 823d 04c2 e93c 6db4 a93d 3524 733d
000000a0: 72e1 8bbc f3e8 9f3d a52c 4f3a 1253 0bbe
000000b0: 1f7a 83bc 3238 0b3e 1305 843c 5902 b2bc
000000c0: 6320 83bd 1ac8 49bd 7580 a43d 9513 8c3d
000000d0: bc7f 353d 4d6e a93c e395 93bd d473 923c
000000e0: 4e1c da3c 8536 41bd 99d5 a23d 6d06 edbc
000000f0: dc25 d73d a0b8 0a3e e3b1 f6bc 4fde 9bbd
00000100: 9c09 20bd d3d3 02bd f534 2a3c 2c27 37bd
00000110: add8 f03c 7303 c43d 8806 e43d a83c 8c3c
00000120: 020c 9bbd 6d54 363b 3da5 33bd 1498 e83b
00000130: 32d2 9d3d ea23 8bbd 3c20 e33c 7109 c8bd
00000140: ae6c 30bd d445 1dbd 41de eabd 9d01 ccbb
00000150: 88b8 993d cea6 3c3c 75f1 133d 02a1 373c
00000160: 5634 babd eeaf 67bd 32aa 14be e5ea b6bc
00000170: a1d2 0abd 3cf2 a7bc 1990 3d3c 6fa2 24bc
00000180: 8ab8 963c c734 0f3c 39bd f13c eba0 023d
00000190: 5447 c23d 201b bc3c 7f47 1cbd fe77 353d
000001a0: 71bc 073d 904f 82bc f51b 283e ae15 06bc
000001b0: d883 1ebe fa0a 06bd 7590 2abd 02c5 193c
000001c0: 274a 10bd 6eff 933d 00cd 9ebd c57a cb3c
000001d0: 6ce9 a73d 1b8e 023c 776d cf3c 50ba 51bd
000001e0: 060a 95bd e485 a73b 5afd 9bbd cd74 e2bc
000001f0: d8cb 2cbe e95c 19bd fc90 03bc fc8a c33c
00000200: 1dea 013e 9d45 48bd 9566 e53b dfda 0cbd
00000210: 22f2 8d3c 576f f0bc 5dc8 e53d 0c1e 943e
00000220: c1b9 a13c 1ed4 d73c 093c 8c3d 9c48 1fbd
00000230: f3d5 d03a 7e7d 283d ec9a 413c d5af f03b
00000240: a504 1d3a b936 c5bb 30f1 573b bac3 803d
00000250: 2359 993d f454 a7bc 8f9e 3f3d fa1f 8a3c
00000260: 41d1 8dbd afa1 f0bd 1464 91bc cc41 d8bd
00000270: ce49 aa3d 7e08 8abd b205 273e f21d 92bd
00000280: afef 37be e743 7bbd e4de 493e 22b4 d2bd
00000290: e950 65bd 62cf febd bdc4 e23b 0c42 893d
000002a0: c27a c2bb bb22 413d 7cd2 693d 06ee 8d3d
000002b0: 1e85 b73d ca59 173d 8833 80bc 092c 19bc
000002c0: d921 a2bd 89d3 08bd 364b ee3d ef34 04bd
000002d0: d171 333d 33b5 2bbc 6537 783d 5ff5 153d
000002e0: c8ad cdbc 984f 0ebb fff7 8c3d e99c 8dbc
000002f0: 5aa6 d9bd 0b06 973c 24ba 95ba b26b dcbd
00000300: 5b6f 7bbd 7569 a53d 0d87 743d 75af 4c3b
00000310: 730a bfbc a25b 583d b27d 783d bf2c c3bd
00000320: df3d 803d 2e16 bcbd 6808 93bc 4784 463d
00000330: 7396 8c3d 62c5 85bd 646e 0b3e 86d1 43bd
00000340: e5da 4c3d d0a5 d9b9 de25 843d ac23 4f3d
00000350: c87a d63d a75d 4dbd 9b59 3bbd e2f6 3d3d
00000360: 142c d93c 75d9 ed3d 9323 ddbc e56b 4bbd
00000370: e24d c83d 9a4c 96ba 772d 373d 1c90 693d
00000380: c928 5bbc c4f1 e1bd e7aa abbd fcca b63d
00000390: 13d2 d93d a4aa 1ebe b50c 173d d190 153d
000003a0: e350 a73d 48d8 a33d b217 ed3c 4e62 463c
000003b0: 2cb2 343d 3143 ef3d 0b72 9c3d 4559 85bb
000003c0: c2ae 86bc d751 28bd 699f c5bc e3ea 3d3d
000003d0: 2d51 313c 3d2e d2bc 4925 083e 5f3d 52bd
000003e0: 1c2d 8fbe 9220 69be fc03 c93d 4823 3dbe
000003f0: 0cbb 57bb 6067 eabd 9eff c1bb 8c8f debd

actor.2.bias f4 [256]
-0.027717654 -0.12238695 -0.056048747 -0.10790203 -0.05114378 -0.09229069 -0.034054354 -0.04614083
-0.009679087 -0.22740507 -0.2301805 -0.14766401 0.045645002 -0.14690395 -0.15898162 -0.054786995
-0.19521333 -0.052244175 -0.17891017 -0.0063567073 -0.09953962 -0.0891662 -0.06870264 0.06344331
-0.05529093 -0.19854532 0.043800678 -0.014796222 -0.015066425 -0.07981213 0.012893264 -0.15371242
-0.2458541 -0.045909137 0.003549827 -0.008205316 -0.12475381 0.007506128 0.017266767 -0.03661675
-0.0026177461 -0.13817199 -0.14798102 -0.106087565 -0.036722224 -0.17426752 -0.016076477 0.008106897
-0.0035315072 -0.048032355 -0.08613684 0.010187195 0.06233522 0.07939521 -0.11723698 0.0022970256
-0.023172006 -0.04255734 -0.08583009 0.013503176 -0.119663894 -0.17260261 0.014590552 -0.0030936857
-0.06146853 0.05548829 0.014015113 -0.0229469 0.03664534 0.026654495 -0.18286277 -0.022931337
-0.009700964 -0.04570829 -0.17845295 -0.13422082 -0.0035304134 0.052344713 -0.03441188 -0.05498901
0.0007472902 -0.15413158 -0.017795075 -0.15306889 -0.04002247 0.013711131 -0.14201804 -0.07751126
-0.07570592 -0.08568486 -0.05656935 0.1218689 -0.17659354 -0.009431402 -0.0317506 -0.08441989
-0.09748098 -0.13370101 -0.07628385 -0.07923621 -0.16408911 -0.17470124 -0.1693149 -0.12089693
-0.018777378 -0.0046973624 -0.013634351 -0.08031543 -0.07000614 -0.06627016 -0.21947803 -0.0026021514
-0.03372857 -0.0070917066 -0.0872453 -0.08052983 -0.105094515 -0.0498838 -0.023460863 0.025017153
-0.17335126 -0.12932055 -0.011354701 -0.1982693 -0.0044692005 -0.09797135 -0.1103904 -0.10507739
-0.048745587 0.09796636 -0.13093093 -0.2921818 -0.11706061 -0.03856133 -0.11681577 -0.03505894
-0.055401854 -0.05136482 0.05685281 -0.070450924 -0.08404363 -0.053917713 -0.021919457 0.003914071
0.0485878 -0.0047439965 -0.26081052 0.012311352 0.05512856 0.03905681 -0.16155796 -0.12753719
-0.11525069 -0.06915857 -0.052684125 -0.08590729 -0.012928531 -0.040263914 -0.060274757 -0.07404447
-0.21301925 -0.117883645 -0.058465037 0.021679366 -0.1859514 -0.071432546 -0.2729943 -0.06945463
0.030885959 -0.06502935 -0.049244657 -0.08050299 -0.010839339 -0.059735008 -0.011854709 -0.16800942
-0.03175669 -0.07531505 -0.114875935 -0.020924969 -0.1465119 0.045403805 0.084234856 0.05735038
-0.012452527 -0.07389126 -0.12955843 0.048877094 -0.012610914 -0.1343347 0.0064961626 -0.0648974
-0.073379114 -0.044375062 -0.20899351 0.055019937 -0.025983052 -0.041335035 0.07449742 -0.161181
-0.14373122 -0.14004743 -0.15873992 0.04959078 0.010954569 -0.09697955 -0.10148887 -0.048841942
-0.022199385 0.10192064 -0.060989708 -0.1531018 -0.1986467 -0.0762153 0.030281924 -0.08850264
0.01977815 0.059921805 -0.13369273 -0.07396868 0.0613638 -0.05216855 -0.023035161 -0.24017902
0.020228093 -0.10100232 -0.04545057 -0.049783114 -0.078844786 -0.1417916 -0.055548485 -0.22569294
-0.17833093 -0.24186568 0.04618367 0.008747075 -0.025751064 -0.112628 -0.027201282 -0.085298054
0.06092237 0.043176934 0.09802551 0.15386829 -0.21665643 0.05555495 0.042907875 -0.12573943
0.020238055 -0.15502374 0.022173394 -0.028357184 0.04329236 0.06121516 -0.12400934 -0.14280681
00000000: 2210 e3bc 02a6 fabd 5f93 65bd bdfb dcbd
00000010: 247c 51bd e702 bdbd 947c 0bbd 2bfe 3cbd
00000020: 0995 1ebc e0dc 68be 70b4 6bbe 3c35 17be
00000030: 41f6 3a3d fd6d 16be 14cc 22be 5468 60bd
00000040: 01e6 47be fdfd 55bd 3a34 37be ed4b d0bb
00000050: 6edb cbbd c59c b6bd f8b3 8cbd 91ee 813d
00000060: be78 62bd 774f 4bbe 5768 333d da6b 72bc
00000070: 2bd9 76bc 8b74 a3bd 453e 533c ca66 1dbe
00000080: 2dc1 7bbe 380b 3cbd 37a4 683b 976f 06bc
00000090: ed7e ffbd f7f5 f53b 0973 8d3c 72fb 15bd
000000a0: 7e8e 2bbb f57c 0dbe 5688 17be 7044 d9bd
000000b0: 0b6a 16bd 2f73 32be d1b2 83bc cad2 043c
000000c0: dc70 67bb 93bd 44bd 8368 b0bd 31e8 263c
000000d0: 3753 7f3d f599 a23d f119 f0bd b289 163b
000000e0: 38d3 bdbc 9b50 2ebd b0c7 afbd 6d3c 5d3c
000000f0: 5812 f5bd bdbe 30be 360d 6f3c 6fbf 4abb
00000100: 6dc6 7bbd b047 633d a59f 653c 23fb bbbc
00000110: 6d19 163d 875a da3c 6140 3bbe 80da bbbc
00000120: cbf0 1ebc 9e38 3bbd 5fbc 36be 2f71 09be
00000130: 825e 67bb 6967 563d 79f3 0cbd 283c 61bd
00000140: cce5 433a abd4 1dbe fac6 91bc 17be 1cbe
00000150: 9aee 23bd a7a4 603c 2d6d 11be 39be 9ebd
00000160: b50b 9bbd 8b7b afbd 43b5 67bd 6796 f93d
00000170: f0d4 34be 2b86 1abc eb0c 02bd 56e4 acbd
00000180: 1ca4 c7bd ebe8 08be b53a 9cbd 9846 a2bd
00000190: fa06 28be e2e4 32be e360 2dbe cf98 f7bd
000001a0: 04d3 99bc 55ec 99bb 9d62 5fbc 6b7c a4bd
000001b0: 615f 8fbd a6b8 87bd d9be 60be db88 2abb
000001c0: f826 0abd 8c61 e8bb aaad b2bd d3ec a4bd
000001d0: cb3b d7bd f552 4cbd ff30 c0bc c6f0 cc3c
000001e0: fe82 31be 9b6c 04be 1109 3abc 1b07 4bbe
000001f0: 5f72 92bb 34a5 c8bd 5d14 e2bd d132 d7bd
00000200: 74a9 47bd 96a2 c83d c212 06be da98 95be
00000210: 79bd efbd 7cf2 1dbd 1b3d efbd f799 0fbd
00000220: 0eed 62bd eb63 52bd 7ede 683d 9348 90bd
00000230: 111f acbd d2d8 5cbd 6f90 b3bc 9b41 803b
00000240: 0004 473d 8773 9bbb f588 85be 8eb5 493c
00000250: 7cce 613d 09fa 1f3d 736f 25be 1c99 02be
00000260: 8e08 ecbd 02a3 8dbd 4fcb 57bd 29f0 afbd
00000270: 30d2 53bc c6eb 24bd aae2 76bd a1a4 97bd
00000280: b821 5abe fb6c f1bd 0979 6fbd ed98 b13c
00000290: 0b6a 3ebe 3a4b 92bd e9c5 8bbe 3b3e 8ebd
000002a0: 8d04 fd3c 1c2e 85bd c4b4 49bd c0de a4bd
000002b0: 7c97 31bc b2ac 74bd 413a 42bc a90a 2cbe
000002c0: 4e13 02bd c73e 9abd 1344 ebbd d76a abbc
000002d0: 3707 16be 57f9 393d 5383 ac3d 3be8 6a3d
000002e0: af05 4cbc 4d54 97bd f7aa 04be 5933 483d
000002f0: 029e 4ebc 098f 09be c3dd d43b eee8 84bd
00000300: ca47 96bd a0c2 35bd 6502 56be 965c 613d
00000310: 69da d4bc ed4e 29bd 1a92 983d a20c 25be
00000320: 472e 13be 9868 0fbe b88c 22be b41f 4b3d
00000330: cb7a 333c 379d c6bd 66d9 cfbd 7d0e 48bd
00000340: 7cdb b5bc c5bb d03d 58d0 79bd b8c6 1cbe
00000350: 0a6a 4bbe c416 9cbd cc11 f83c df40 b5bd
00000360: c905 a23c 9170 753d bfe6 08be e47c 97bd
00000370: 9c58 7b3d b1ae 55bd 3cb4 bcbc 7df1 75be
00000380: 63b5 a53c 4eda cebd 602a 3abd 61e9 4bbd
00000390: 6079 a1bd d131 11be cf86 63bd 0d1c 67be
000003a0: 629c 36be a3ab 77be 172b 3d3d e44f 0f3c
000003b0: e5f3 d2bc 82a9 e6bd 39d5 debc bfb0 aebd
000003c0: bc89 793d 4cda 303d 99c1 c83d a68f 1d3e
000003d0: 2fdb 5dbe 968d 633d 2bc0 2f3d d6c1 00be
000003e0: 47ca a53c 8bbe 1ebe faa4 b53c 534d e8bc
000003f0: 5453 313d bfbc 7a3d 9cf8 fdbd f33b 12be

actor.4.weight f4 [256, 256]
-0.032930918 -0.05291815 0.017477091 0.06854781 0.096994914 -0.0023628233 -0.09473262 -0.0661506
0.006935115 -0.020340702 -0.06154637 -0.13140696 -0.023347046 0.10704477 0.029703079 0.020460727
0.11807513 0.021569008 0.057140518 0.05273717 0.0414979 -0.007003716 -0.07344442 0.04998014
0.010550628 0.10345301 -0.02384911 -0.016535804 0.037832346 -0.038399488 0.027872032 0.033423238
0.050177388 -0.07101474 0.06855305 0.035325732 0.014249646 -0.061323278 0.02848858 -0.009328108
0.011535565 0.008500742 -0.07492168 -0.004765201 -0.10340425 0.068176195 -0.005246678 -0.039078295
-0.098090835 -0.0106628155 0.12651823 0.005724333 0.019273514 0.04905799 -0.06943165 -0.046775043
0.007341291 0.0629805 0.05041307 -0.051775075 0.010193086 -0.0070628254 0.036127824 0.003920685
-0.16196153 -0.020049931 0.013095866 -0.015849225 -0.091687195 -0.010343112 -0.07884661 0.028566753
-0.017205657 0.008522919 0.08128721 -0.07082803 0.00916884 0.0100002885 -0.12691581 -0.043843113
-0.02872403 0.019468267 -0.052491177 0.018040571 -0.027611185 0.0424812 -0.046507653 0.08994221
-0.0019830312 0.061713435 0.13223176 0.026881319 -0.007568153 0.048488285 0.0068283314 0.08271374
-0.006132243 -0.0043530012 -0.027261542 -0.09206077 0.04111826 -0.05527078 -0.0017618391 -0.095585816
-0.10782426 -0.0095377145 -0.039066676 -0.01976943 0.09548718 0.021029823 -0.037075255 -0.032893497
-0.006755716 -0.012254374 -0.043537322 -0.065274626 -0.022071036 0.03864926 -0.0977194 0.040057153
0.049397323 -0.024307951 0.014763551 0.046506394 0.14546973 0.0020984998 -0.01743966 0.03439597
-0.02005098 0.025747316 0.029239936 0.013520216 0.02348794 -0.11352305 -0.0067738253 0.052664798
-0.048955448 0.035181202 0.0128529575 -0.03495673 -0.053349227 0.084186345 0.012789 0.030344484
-0.035200737 0.05121588 0.005372282 -0.010646332 -0.055240892 -0.024103392 0.06352742 0.04686093
-0.04957181 0.055896576 0.0150742605 0.06912767 0.051912967 -0.094135836 0.014297242 0.0150639
-0.03117393 0.037531517 -0.10533515 -0.038261645 -0.017443594 0.08153764 -0.028978175 0.023143023
-0.057440955 0.016786227 -0.013832211 -0.010526269 -0.03867748 0.036251016 -0.04397201 0.039454218
0.066441655 0.026854115 0.037177138 -0.022573257 0.063144304 0.07587632 -0.051839102 0.07203791
-0.03741641 0.0588379 0.00513413 0.00017861713 0.05348794 -0.053758267 -0.036228467 -0.08033556
-0.030601295 -0.08126206 0.017546242 -0.007990576 -0.0010690902 0.008468517 -0.029917963 0.09763846
-0.041564196 -0.0071212687 -0.04820556 -0.070459776 -0.009208954 -0.035387572 -0.12240342 -0.019150563
0.037336085 -0.03554023 -0.09009661 -0.019145373 0.0026666878 0.03962887 -0.028285433 -0.004453462
-0.08707367 0.034213908 0.08404265 3.5700126e-05 0.021402633 -0.043118164 0.025709057 0.049543306
-0.032934073 -0.006072833 0.04932778 -0.05148376 -0.018022787 -0.015084074 -0.031737216 -0.036518876
-0.119655356 -0.057617478 -0.05737057 -0.0028979746 -0.0776781 0.0062691905 0.040613603 0.030672606
0.045339677 0.070832185 -0.0758248 0.023453865 -0.06267624 -0.05546872 0.021887565 0.025437614
0.044789903 -0.055879366 -0.039619617 0.028114328 -0.036910046 -0.018575598 0.019506073 0.03459607
00000000: 92e2 06bd b4c0 58bd 1e2c 8f3c cb62 8c3d
00000010: 45a5 c63d 99d9 1abb 2d03 c2bd f779 87bd
00000020: f63f e33b 8ba1 a6bc 0c18 7cbd 8c8f 06be
00000030: 4e42 bfbc 4a3a db3d df53 f33c 419d a73c
00000040: 60d1 f13d 7db1 b03c 2d0c 6a3d ee02 583d
00000050: b4f9 293d 6e7f e5bb 076a 96bd fab7 4c3d
00000060: 8bdc 2c3c 2cdf d33d 355f c3bc 1876 87bc
00000070: 17f6 1a3d c848 1dbd e353 e43c cee6 083d
00000080: ce86 4d3d 2d70 91bd 8b65 8c3d b7b1 103d
00000090: 5977 693c 1e2e 7bbd e260 e93c ecd4 18bc
000000a0: abff 3c3c b246 0b3c 8a70 99bd 6725 9cbb
000000b0: 9cc5 d3bd f69f 8b3d 53ec abbb 9010 20bd
000000c0: d9e3 c8bd 17b3 2ebc ff8d 013e 3093 bb3b
000000d0: 7de3 9d3c 08f1 483d 2e32 8ebd 3097 3fbd
000000e0: 368f f03b ecfb 803d ef7d 4e3d 1a12 54bd
000000f0: e700 273c 466f e7bb c5fa 133d 1779 803b
00000100: 3ed9 25be c13f a4bc 0b90 563c 3cd6 81bc
00000110: 7fc6 bbbd 2876 29bc 557a a1bd d304 ea3c
00000120: e1f2 8cbc b7a3 0b3c e979 a63d 490e 91bd
00000130: e738 163c 40d8 233c 38f6 01be d694 33bd
00000140: a84e ebbc ea7b 9f3c fd00 57bd d2c9 933c
00000150: da30 e2bc c400 2e3d cf7e 3ebd 9f33 b83d
00000160: bef5 01bb 3ac7 7c3d c367 073e 3636 dc3c
00000170: 45fe f7bb a79b 463d 32c0 df3b d265 a93d
00000180: fcf0 c8bb 9fa3 8ebb 9953 dfbc 5b8a bcbd
00000190: 9f6b 283d 9d63 62bd 83ed e6ba 7fc2 c3bd
000001a0: f7d2 dcbd 1344 1cbc 6104 20bd 80f3 a1bc
000001b0: c88e c33d bc46 ac3c 39dc 17bd 55bb 06bd
000001c0: 0e5f ddbb 92c6 48bc 3154 32bd b4ae 85bd
000001d0: 51ce b4bc b04e 1e3d 1c21 c8bd f812 243d
000001e0: d954 4a3d 7821 c7bc d2e2 713c 7d7d 3e3d
000001f0: 04f6 143e fc86 093b 9edd 8ebc cae2 0c3d
00000200: f441 a4bc 09ec d23c 9788 ef3c e583 5d3c
00000210: c869 c03c c67e e8bd f7f6 ddbb 0bb7 573d
00000220: 8285 48bd 2a1a 103d 3695 523c ca2e 0fbd
00000230: b884 5abd e469 ac3d f488 513c ff94 f83c
00000240: a62e 10bd bec7 513d f809 b03b f46d 2ebc
00000250: 4644 62bd 7a74 c5bc aa1a 823d 3ff1 3f3d
00000260: cf0b 4bbd cff3 643d 08fa 763c cf92 8d3d
00000270: b1a2 543d 4aca c0bd fb3e 6a3c 93ce 763c
00000280: 7860 ffbc a6ba 193d f5b9 d7bd 3eb8 1cbd
00000290: dee5 8ebc 35fd a63d a363 edbc 7096 bd3c
000002a0: 3547 6bbd 4583 893c 7fa0 62bc 5f76 2cbc
000002b0: 476c 1ebd f27b 143d ff1b 34bd bf9a 213d
000002c0: 9012 883d 29fd db3c 0e47 183d 8deb b8bc
000002d0: cd51 813d 0b65 9b3d 3d55 54bd 9d88 933d
000002e0: f341 19bd 0300 713d 343c a83b 2c4b 3b39
000002f0: 2c16 5b3d a131 5cbd 4d64 14bd f886 a4bd
00000300: 91af fabc b96c a6bd 23bd 8f3c e8ea 02bc
00000310: b720 8cba 89bf 0a3c 8416 f5bc acf6 c73d
00000320: 383f 2abd 8859 e9bb 3173 45bd 374d 90bd
00000330: 27e1 16bc 8ff2 10bd a5ae fabd a4e1 9cbc
00000340: b9ed 183d a292 11bd 9284 b8bd c2d6 9cbc
00000350: 99c3 2e3b e251 223d dab6 e7bc 59ee 91bb
00000360: ae53 b2bd e223 0c3d 8e1e ac3d b8bc 1538
00000370: 9354 af3c ac9c 30bd cd9b d23c eced 4a3d
00000380: e1e5 06bd 9efe c6bb ed0b 4a3d a3e0 52bd
00000390: 86a4 93bc 3123 77bc e2fe 01bd d194 15bd
000003a0: de0d f5bd 4e00 6cbd 67fd 6abd f2eb 3dbb
000003b0: b215 9fbd c86d cd3b 735a 263d 1e45 fb3c
000003c0: 19b6 393d 7710 913d 084a 9bbd 5222 c03c
000003d0: 675c 80bd 2b33 63bd 8d4d b33c 8b62 d03c
000003e0: 9e75 373d c3e1 64bd 2e48 22bd 0550 e63c
000003f0: fd2e 17bd da2b 98bc 33cb 9f3c 9cb4 0d3d

actor.4.bias f4 [256]
0.08297521 0.0052521126 0.017472425 -0.05947095 0.06445932 -0.36842546 0.04973472 -0.029075174
-0.0930794 0.16277014 -0.12772933 -0.33923224 -0.22520988 0.0395332 0.1283601 -0.09514927
-0.12864535 -0.052339405 -0.20914936 0.012991019 0.07694458 0.022436662 -0.22185928 -0.124719195
0.032629147 0.087966196 -0.06492369 -0.11701298 -0.31044415 0.26975912 0.028283818 0.11348466
-0.14818898 -0.016614322 0.10451028 -0.0866758 0.037116595 -0.058187917 0.05854219 -0.11023337
-0.072278515 -0.015544549 -0.21808179 0.041728236 -0.035249654 -0.2889107 0.029702792 0.0747186
0.06646053 0.1950356 -0.093092404 0.043283343 -0.24061777 0.110347055 -0.21247259 -0.017936233
-0.059391387 -0.0076929154 -0.06195178 0.11146947 0.063262954 -0.08708245 0.0036357674 0.03861395
0.06860968 0.023087827 -0.1252108 -0.30032143 -0.16781862 -0.18000162 0.11004263 -0.013901346
-0.11001543 -0.112026714 -0.07242939 0.14141993 -0.048770394 0.08115205 -0.076685406 -0.060237247
-0.06773928 -0.092103936 0.1572528 0.01858816 -0.2560605 -0.05395033 -0.038966134 0.06817275
0.13839409 0.009066807 0.036440965 0.14627627 -0.09650103 0.07317849 -0.071571186 -0.11099208
-0.034938466 -0.041623138 -0.18745597 0.19184111 -0.13571037 -0.055254452 -0.13692413 0.015300328
-0.020708287 -0.05350356 0.07537627 0.116081715 0.104420565 -0.03588708 0.18914206 -0.03400665
-0.022810206 -0.18721305 -0.047492694 -0.08312791 -0.15742713 0.1280238 -0.1445805 0.064167544
-0.059563734 -0.18899913 0.07259839 0.04693339 -0.07200452 -0.053534627 -0.15215054 0.041763123
-0.18139553 -0.05192605 0.13565113 0.17590354 -0.2655271 -0.112697184 -0.26729277 -0.07595414
-0.1302552 -0.19739544 0.04494506 -0.386871 -0.14425914 -0.031073544 -0.12608194 0.027677014
-0.19314007 -0.021781018 0.13835755 0.05556121 -0.06326401 -0.040670753 0.046104427 0.12424476
-0.17011058 -0.040755145 0.08607673 -0.14008278 -0.15314284 -0.014665336 -0.005171767 0.108858906
-0.3368744 -0.24891475 -0.030769667 0.049179245 -0.135073 -0.15015124 -0.0705216 0.040982615
-0.11724216 -0.08474231 0.03643483 0.10333456 -0.06562018 -0.07060789 0.014625459 -0.17790613
-0.12914024 0.10518708 0.014682527 0.09097637 0.13532244 -0.03294708 0.11518852 -0.39862773
-0.33783585 -0.00808172 -0.11600581 0.031006893 -0.11277302 -0.4014846 0.11411176 -0.27850837
0.13838308 -0.09656069 0.055103876 -0.035025194 -0.071513064 0.16487059 -0.17568952 -0.021334685
0.03736953 -0.07081721 0.052435964 -0.07444907 0.04803386 0.03103086 -0.06513039 -0.13387406
-0.03869501 -0.16735205 -0.19869232 0.074712075 -0.037143096 -0.11372282 0.007381289 -0.2647149
0.13361663 -0.12570474 0.024652552 -0.19375621 -0.011182053 -0.036024358 0.17264362 -0.14872435
0.16363935 -0.4017018 -0.0042833085 -0.19535205 0.16339162 -0.16651988 -0.14172496 -0.10162364
0.2471815 0.024249857 0.080926985 0.009337211 -0.020189948 0.06755721 0.0046530864 0.08752428
0.048918933 -0.15432428 0.019639876 -0.012154738 0.015463133 -0.06070707 -0.044710338 -0.14010277
-0.18827415 -0.06962582 -0.34290442 0.1264877 -0.43866462 -0.33698216 -0.04589037 0.16159768
00000000: e8ee a93d ea19 ac3b 5522 8f3c d097 73bd
00000010: 3f03 843d 43a2 bcbe a2b6 4b3d 0f2f eebc
00000020: 6aa0 bebd 37ad 263e 7acb 02be d9af adbe
00000030: 6b9d 66be 91ed 213d d470 033e 9fdd c2bd
00000040: 9bbb 03be d861 56bd 402b 56be 48d8 543c
00000050: 1f95 9d3d 17cd b73c 142f 63be c76c ffbd
00000060: 24a6 053d 9f27 b43d b6f6 84bd 80a4 efbd
00000070: 89f2 9ebe de1d 8a3e 77b3 e73c a56a e83d
00000080: dabe 17be c21a 88bc 7c09 d63d 1583 b1bd
00000090: 9207 183d 7456 6ebd efc9 6f3d 08c2 e1bd
000000a0: c206 94bd 90ae 7ebc d550 5fbe 3aeb 2a3d
000000b0: f161 10bd 1aec 93be 4553 f33c 1106 993d
000000c0: 751c 883d 6ab7 473e 3ba7 bebd e049 313d
000000d0: 8164 76be a3fd e13d 6a92 59be 02ef 92bc
000000e0: 6244 73bd da14 fcbb 26c1 7dbd 1b4a e43d
000000f0: 0290 813d 4958 b2bd 0e46 6e3b a929 1e3d
00000100: 3b83 8c3d af22 bd3c 4337 00be bbc3 99be
00000110: a5d8 2bbe 5852 38be 085e e13d 79c2 63bc
00000120: c54f e1bd 436e e5bd dc55 94bd 63d0 103e
00000130: 77c3 47bd 0c33 a63d 3d0d 9dbd 55bb 76bd
00000140: e4ba 8abd fda0 bcbd e106 213e 3246 983c
00000150: 5d1a 83be 05fb 5cbd f49a 1fbd 289e 8b3d
00000160: 2eb7 0d3e f28c 143c 1f43 153d 72c9 153e
00000170: 55a2 c5bd 9bde 953d ea93 92bd d14f e3bd
00000180: a31b 0fbd 067d 2abd 75f4 3fbe ff71 443e
00000190: a9f7 0abe 7e52 62bd d735 0cbe 3aae 7a3c
000001a0: 6da4 a9bc 8d26 5bbd e05e 9a3d 40bc ed3d
000001b0: 73da d53d 55fe 12bd 75ae 413e 8f4a 0bbd
000001c0: 78dc babc c7b4 3fbe b387 42bd f73e aabd
000001d0: 9434 21be ac18 033e e90c 14be 466a 833d
000001e0: 1af9 73bd fd88 41be 77ae 943d 3a3d 403d
000001f0: 1b77 93bd 2047 5bbd 5acd 1bbe cf0f 2b3d
00000200: c0bf 39be 69b0 54bd 21e8 0a3e 0f20 343e
00000210: 2bf3 87be c8cd e6bd 99da 88be d88d 9bbd
00000220: 9f61 05be 0822 4abe 5018 383d f513 c6be
00000230: abb8 13be f28d febc a01b 01be e8ba e23c
00000240: 83c6 45be 1b6e b2bc 9aad 0d3e 2794 633d
00000250: 9090 81bd 6096 26bd ffd7 3c3d 0974 fe3d
00000260: 7831 2ebe deee 26bd ff48 b03d dc71 0fbe
00000270: 7ad1 1cbe e146 70bc ed77 a9bb 6bf1 de3d
00000280: cd7a acbe 82e3 7ebe ab10 fcbc 2d70 493d
00000290: 9450 0abe 3fc1 19be a16d 90bd 63dd 273d
000002a0: a81c f0bd 608d adbd b03c 153d 12a1 d33d
000002b0: df63 86bd df9a 90bd 9f9f 6f3c 062d 36be
000002c0: 573d 04be 536c d73d fb8e 703c d251 ba3d
000002d0: f791 0a3e 84f3 06bd f5e7 eb3d ef18 ccbe
000002e0: d2f8 acbe 3169 04bc 7494 edbd 2b02 fe3c
000002f0: 8bf5 e6bd 648f cdbe 6db3 e93d a698 8ebe
00000300: 4bb4 0d3e 9cc1 c5bd 9ab4 613d 9476 0fbd
00000310: 7175 92bd d6d3 283e f4e7 33be 14c6 aebc
00000320: cb10 193d 9d08 91bd 18c7 563d c178 98bd
00000330: 27bf 443d 6e34 fe3c 1563 85bd 4816 09be
00000340: a97e 1ebd 565e 2bbe 0076 4bbe a502 993d
00000350: 5c23 18bd 83e7 e8bd bdde f13b b688 87be
00000360: ccd2 083e beb8 00be 26f4 c93c 0768 46be
00000370: ee34 37bc 478e 13bd 7dc9 303e 324b 18be
00000380: 1391 273e dcab cdbe ff5a 8cbb 5e0a 48be
00000390: 2250 273e 3084 2abe 5920 11be 0e20 d0bd
000003a0: 261d 7d3e a3a7 c63c 0cbd a53d 1afb 183c
000003b0: 6465 a5bc 6f5b 8a3d eb78 983b ee3f b33d
000003c0: 385f 483d 2f07 1ebe cee3 a03c ab24 47bc
000003d0: 1559 7d3c faa7 78bd 3022 37bd 1a77 0fbe
000003e0: f0ca 40be fb97 8ebd 2b91 afbe fe85 013e
000003f0: a698 e0be ed88 acbe 8af7 3bbd dd79 253e

actor.6.weight f4 [12, 256]
-0.0024431755 0.011419464 0.011961504 -0.028837798 0.024301821 0.030142894 0.001781125 -0.0053607905
0.024904417 0.007984827 -0.020060994 -0.0021587105 -0.04301218 -0.040509652 0.0074540656 -0.058463965
0.009770049 -0.020157447 -0.050944746 0.012002565 -0.0011488545 -0.0014852639 -0.013504202 -0.030978946
-0.043920517 0.040377676 0.008606131 0.030817062 0.007948315 0.02247462 0.063627385 0.004911838
0.00553574 0.0054587685 0.033013053 0.044509247 -0.029945495 -0.0019320616 -0.007953133 0.021961935
-0.048677936 0.0007221452 0.0589173 -0.010329763 0.042298727 0.0054568793 0.028017258 -0.012793426
0.034683384 0.082126245 0.022767058 0.0050193365 -0.050112706 0.011907429 -0.08021595 0.0024429883
0.0013682378 -0.06109021 0.023416739 0.005917248 0.012368823 0.009918575 0.00927595 -0.04406278
-0.0019230975 0.0019695486 -0.024340529 -0.0054455907 0.014741734 0.0335528 -0.032267068 0.016397564
0.1037915 0.028704066 0.0027830964 0.03170578 0.006854108 0.013544865 -0.07507339 0.030367285
0.008218481 -0.014069154 0.0662264 -0.0003781801 -0.06699529 -0.0011370766 0.022653831 0.01888373
0.011616084 -0.0054414663 0.03399803 0.021568425 -0.013204801 0.03762775 0.004183357 0.0021483898
0.023077963 -0.00081359065 -0.05069266 -0.011808091 -0.005239425 0.047218192 0.001730271 -0.008534522
0.043850936 0.021529326 -0.0149663435 -0.011036971 -0.00089785154 -0.0010117351 0.015834523 -0.03293428
0.028039288 -0.03818105 -0.036850654 0.019203233 -0.018222589 -0.0016824643 -0.031192467 0.00268095
0.013715908 -0.03836359 0.022476766 -0.006941198 0.014826096 0.07671381 0.006935215 0.0061259903
-0.0012226924 0.0044609522 0.013893279 -0.004804725 0.021877568 0.020309897 -0.0285678 -0.014762355
0.0025264842 -0.04080607 0.027207347 -0.017043345 0.0030895208 0.009916943 0.007117371 -0.0066760974
-0.023923784 -0.010369069 0.013746661 -0.0028016113 -0.035058346 -0.0029326065 -0.008945158 -0.030259375
-0.0043097464 0.04795257 -0.011838258 0.0045065302 0.040895086 0.013824323 -0.012762839 -0.033652194
-0.07146063 -0.08111467 -0.012408104 0.011167198 -0.04700679 -0.023823552 0.018172083 -0.055904146
-0.051588725 -0.008608347 0.045825165 -0.022969823 -0.012292435 0.028931567 0.042116005 0.04444825
-0.033834852 0.011064877 -0.018936545 0.050873775 0.004701412 0.003955067 0.008335278 -0.055619143
-0.02498858 0.038833696 -0.0043354966 0.018384054 0.09966539 -0.032997817 0.047604617 -0.048318326
-0.008276543 -0.05273542 -0.0158133 -0.016033787 0.0051684813 0.05373798 0.043520957 0.02103575
0.010224518 -0.040504728 0.002978918 0.021679008 0.0017003487 -0.011118725 -0.0017578987 0.09863832
0.024924878 -0.03728077 0.115979835 0.0081474185 0.009522486 -0.004949265 0.071857676 -0.059902024
-0.005912924 -0.059683967 0.015575458 -0.006275909 0.06633217 0.022606436 0.014467893 0.07750056
0.044650085 -0.13212857 0.0054501086 -0.057149418 0.005632586 0.07663983 -0.05612458 0.0015836243
0.06401705 0.017691389 0.04211116 0.043831203 0.031616606 0.026862241 0.0016283189 -0.09815143
0.005842267 0.0023137764 0.030715741 -0.014202771 -0.008113968 0.024369603 -0.0659446 -0.062325213
0.027690351 -0.016683005 -0.03803634 0.0035091476 -0.014195492 -0.06475619 -0.04138878 -0.0641953
00000000: af1d 20bb b418 3b3c 2ffa 433c 3f3d ecbc
00000010: 9d14 c73c 3bee f63c a374 e93a 92a9 afbb
00000020: 5904 cc3c cbd2 023c f456 a4bc 2779 0dbb
00000030: 8a2d 30bd 73ed 25bd 3c41 f43b e977 6fbd
00000040: 8e12 203c 3b21 a5bc 70ab 50bd 68a6 443c
00000050: 2995 96ba 30ad c2ba ba40 5dbc 8fc7 fdbc
00000060: 00e6 33bd 1063 253d bb00 0d3c 1074 fc3c
00000070: a639 023c b21c b83c 134f 823d 7cf3 a03b
00000080: 2765 b53b 78df b23b b238 073d 544f 363d
00000090: 4150 f5bc 3b3d fdba dc4d 02bc 84e9 b33c
000000a0: 8462 47bd 584e 3d3a 4453 713d 2b3e 29bc
000000b0: 6e41 2d3d 9fcf b23b 7384 e53c 859b 51bc
000000c0: 2a10 0e3d ce31 a83d fb81 ba3c 3f79 a43b
000000d0: fb42 4dbd 6117 433c 4348 a4bd 8b1a 203b
000000e0: 7156 b33a ba39 7abd 76d4 bf3c 79e5 c13b
000000f0: 9ba6 4a3c 8581 223c 27fa 173c 2c7b 34bd
00000100: 7210 fcba 8b13 013b ca65 c7bc ed70 b2bb
00000110: 5087 713c a96e 093d 792a 04bd 2f54 863c
00000120: a390 d43d ca24 eb3c 9c64 363b ecdd 013d
00000130: 6d98 e03b 48eb 5d3c 14c0 99bd d0c4 f83c
00000140: cfa6 063c 4f82 66bc b5a1 873d 7946 c6b9
00000150: d434 89bd f609 95ba 8794 b93c 0db2 9a3c
00000160: 6351 3e3c 544e b2bb 8541 0b3d 44b0 b03c
00000170: f358 58bc 8e1f 1a3d 8b14 893b 00cc 0c3b
00000180: ff0d bd3c 2547 55ba 1ba3 4fbd b976 41bc
00000190: 7caf abbb dd67 413d 43ca e23a 61d4 0bbc
000001a0: 0a9d 333d 455e b03c 6535 75bc 69d4 34bc
000001b0: cc5d 6bba 329c 84ba 67b7 813c 18e6 06bd
000001c0: a6b2 e53c bc63 1cbd b6f0 16bd 1950 9d3c
000001d0: 8a47 95bc 2286 dcba 5887 ffbc e1b2 2f3b
000001e0: b0b8 603c 2423 1dbd 3221 b83c fd72 e3bb
000001f0: 27e9 723c 211c 9d3d cd40 e33b 88bc c83b
00000200: c042 a0ba 2e2d 923b a3a0 633c f470 9dbb
00000210: 9638 b33c f160 a63c 0507 eabc cedd 71bc
00000220: 5f93 253b 4424 27bd f1e1 de3c 7c9e 8bbc
00000230: 8f79 4a3b ac7a 223c d638 e93b 2ac3 dabb
00000240: d0fb c3bc 07e3 29bc ad39 613c 3d9b 37bb
00000250: 5799 0fbd f930 40bb b68e 12bc 82e2 f7bc
00000260: c638 8dbb ea69 443d 41f5 41bc 84ab 933b
00000270: 9b81 273d 6a7f 623c 3a1b 51bc e2d6 09bd
00000280: f359 92bd 731f a6bd 5c4b 4bbc a0f6 363c
00000290: 318a 40bd 9c29 c3bc 9fdd 943c bffb 64bd
000002a0: b34e 53bd 060a 0dbc 2bb3 3b3d 362b bcbc
000002b0: 3666 49bc e501 ed3c d581 2c3d 5e0f 363d
000002c0: 6a96 0abd 7549 353c d020 9bbc 0561 503d
000002d0: 4d0e 9a3b 8299 813b b190 083c e6d0 63bd
000002e0: dab4 ccbc 1510 1f3d c810 8ebb 289a 963c
000002f0: 5e1d cc3d b828 07bd 0ffd 423d 70e9 45bd
00000300: 569a 07bc 1901 58bd e58a 81bc 4a59 83bc
00000310: 5d5c a93b 5b1c 5c3d 0843 323d 2a53 ac3c
00000320: bd84 273c 49e8 25bd f339 433b 2d98 b13c
00000330: 3cde de3a 502b 36bc 4b69 e6ba e302 ca3d
00000340: 422f cc3c b8b3 18bd d686 ed3d c07c 053c
00000350: 3304 1c3c 722d a2bb 1e2a 933d d35b 75bd
00000360: 34c1 c1bb 2d77 74bd 3530 7f3c 24a6 cdbb
00000370: 29d9 873d 2231 b93c be0a 6d3c 9db8 9e3d
00000380: 02e3 363d b64c 07be d396 b23b 8215 6abd
00000390: 8e91 b83b 58f5 9c3d e3e2 65bd 9d91 cf3a
000003a0: 5f1b 833d 88ed 903c c07c 2c3d 5988 333d
000003b0: 6a80 013d 340e dc3c 516d d53a 9e03 c9bd
000003c0: 7d70 bf3b baa2 173b 949f fb3c bdb2 68bc
000003d0: 73f0 04bc c3a2 c73c f60d 87bd b948 7fbd
000003e0: e0d6 e23c ccaa 88bc fecb 1bbd baf9 653b
000003f0: 3594 68bc e59e 84bd 4887 29bd d378 83bd

actor.6.bias f4 [12]
0.06727826 0.03345266 0.075940885 0.3304689 -0.2340423 0.019733913 -0.034151483 -0.059044033
-0.008025673 0.28195918 -0.30611852 0.00017491993
00000000: 2fc9 893d a805 093d e586 9b3d 3833 a93e
00000010: c9a8 6fbe 04a9 a13c 6de2 0bbd 28d8 71bd
00000020: 1d7e 03bc f45c 903e 91bb 9cbe b66a 3739
